
	MODEL
Sequential(
  (0): Linear(in_features=30, out_features=58, bias=True)
  (1): Tanh()
  (2): Linear(in_features=58, out_features=199, bias=True)
  (3): Sigmoid()
  (4): Linear(in_features=199, out_features=86, bias=True)
  (5): Sigmoid()
  (6): Linear(in_features=86, out_features=197, bias=True)
  (7): ReLU()
  (8): Linear(in_features=197, out_features=6, bias=True)
  (9): Tanh()
  (10): Linear(in_features=6, out_features=28, bias=True)
  (11): LeakyReLU(negative_slope=0.01)
  (12): Linear(in_features=28, out_features=106, bias=True)
  (13): Tanh()
  (14): Linear(in_features=106, out_features=182, bias=True)
  (15): LeakyReLU(negative_slope=0.01)
  (16): Linear(in_features=182, out_features=12, bias=True)
  (17): Sigmoid()
  (18): Linear(in_features=12, out_features=158, bias=True)
  (19): ReLU()
  (20): Linear(in_features=158, out_features=187, bias=True)
  (21): LeakyReLU(negative_slope=0.01)
  (22): Linear(in_features=187, out_features=1, bias=True)
  (23): Sigmoid()
)LEARNING RATE : 8.09404342972328e-06	EPOCHS : 100
SCORE : 0.99876
MEAN ACCURACY : 0.9987600000000002
MEAN PRECISION : 0.9987600000000002
BEST ACCURACY : 0.99876
WORST ACCURACY  : 0.99876
BEST PRECISION  : 0.99876
WORST PRECISION : 0.99876


	MODEL
Sequential(
  (0): Linear(in_features=30, out_features=102, bias=True)
  (1): LeakyReLU(negative_slope=0.01)
  (2): Linear(in_features=102, out_features=35, bias=True)
  (3): LeakyReLU(negative_slope=0.01)
  (4): Linear(in_features=35, out_features=86, bias=True)
  (5): Sigmoid()
  (6): Linear(in_features=86, out_features=153, bias=True)
  (7): ReLU()
  (8): Linear(in_features=153, out_features=41, bias=True)
  (9): Tanh()
  (10): Linear(in_features=41, out_features=164, bias=True)
  (11): ReLU()
  (12): Linear(in_features=164, out_features=77, bias=True)
  (13): Sigmoid()
  (14): Linear(in_features=77, out_features=11, bias=True)
  (15): Sigmoid()
  (16): Linear(in_features=11, out_features=53, bias=True)
  (17): Tanh()
  (18): Linear(in_features=53, out_features=173, bias=True)
  (19): ReLU()
  (20): Linear(in_features=173, out_features=116, bias=True)
  (21): ReLU()
  (22): Linear(in_features=116, out_features=36, bias=True)
  (23): LeakyReLU(negative_slope=0.01)
  (24): Linear(in_features=36, out_features=159, bias=True)
  (25): Sigmoid()
  (26): Linear(in_features=159, out_features=164, bias=True)
  (27): Sigmoid()
  (28): Linear(in_features=164, out_features=184, bias=True)
  (29): LeakyReLU(negative_slope=0.01)
  (30): Linear(in_features=184, out_features=182, bias=True)
  (31): LeakyReLU(negative_slope=0.01)
  (32): Linear(in_features=182, out_features=182, bias=True)
  (33): LeakyReLU(negative_slope=0.01)
  (34): Linear(in_features=182, out_features=154, bias=True)
  (35): Tanh()
  (36): Linear(in_features=154, out_features=1, bias=True)
  (37): Sigmoid()
)LEARNING RATE : 2.677096388362465e-06	EPOCHS : 100
SCORE : 0.6440862222222223
MEAN ACCURACY : 0.9322586666666669
MEAN PRECISION : 0.9322586666666669
BEST ACCURACY : 0.99876
WORST ACCURACY  : 0.00124
BEST PRECISION  : 0.99876
WORST PRECISION : 0.00124


	MODEL
Sequential(
  (0): Linear(in_features=30, out_features=102, bias=True)
  (1): LeakyReLU(negative_slope=0.01)
  (2): Linear(in_features=102, out_features=35, bias=True)
  (3): LeakyReLU(negative_slope=0.01)
  (4): Linear(in_features=35, out_features=86, bias=True)
  (5): Sigmoid()
  (6): Linear(in_features=86, out_features=197, bias=True)
  (7): ReLU()
  (8): Linear(in_features=197, out_features=41, bias=True)
  (9): Tanh()
  (10): Linear(in_features=41, out_features=158, bias=True)
  (11): LeakyReLU(negative_slope=0.01)
  (12): Linear(in_features=158, out_features=106, bias=True)
  (13): Tanh()
  (14): Linear(in_features=106, out_features=11, bias=True)
  (15): Sigmoid()
  (16): Linear(in_features=11, out_features=53, bias=True)
  (17): Tanh()
  (18): Linear(in_features=53, out_features=173, bias=True)
  (19): ReLU()
  (20): Linear(in_features=173, out_features=187, bias=True)
  (21): ReLU()
  (22): Linear(in_features=187, out_features=152, bias=True)
  (23): Sigmoid()
  (24): Linear(in_features=152, out_features=175, bias=True)
  (25): ReLU()
  (26): Linear(in_features=175, out_features=66, bias=True)
  (27): ReLU()
  (28): Linear(in_features=66, out_features=184, bias=True)
  (29): LeakyReLU(negative_slope=0.01)
  (30): Linear(in_features=184, out_features=182, bias=True)
  (31): LeakyReLU(negative_slope=0.01)
  (32): Linear(in_features=182, out_features=91, bias=True)
  (33): ReLU()
  (34): Linear(in_features=91, out_features=154, bias=True)
  (35): Tanh()
  (36): Linear(in_features=154, out_features=1, bias=True)
  (37): ReLU()
)LEARNING RATE : 2.677096388362465e-06	EPOCHS : 100
SCORE : 0.99876
MEAN ACCURACY : 0.9987600000000002
MEAN PRECISION : 0.9987600000000002
BEST ACCURACY : 0.99876
WORST ACCURACY  : 0.99876
BEST PRECISION  : 0.99876
WORST PRECISION : 0.99876


	MODEL
Sequential(
  (0): Linear(in_features=30, out_features=165, bias=True)
  (1): Tanh()
  (2): Linear(in_features=165, out_features=35, bias=True)
  (3): LeakyReLU(negative_slope=0.01)
  (4): Linear(in_features=35, out_features=86, bias=True)
  (5): Sigmoid()
  (6): Linear(in_features=86, out_features=197, bias=True)
  (7): ReLU()
  (8): Linear(in_features=197, out_features=41, bias=True)
  (9): Tanh()
  (10): Linear(in_features=41, out_features=158, bias=True)
  (11): LeakyReLU(negative_slope=0.01)
  (12): Linear(in_features=158, out_features=106, bias=True)
  (13): Tanh()
  (14): Linear(in_features=106, out_features=11, bias=True)
  (15): Sigmoid()
  (16): Linear(in_features=11, out_features=53, bias=True)
  (17): Tanh()
  (18): Linear(in_features=53, out_features=78, bias=True)
  (19): ReLU()
  (20): Linear(in_features=78, out_features=187, bias=True)
  (21): ReLU()
  (22): Linear(in_features=187, out_features=1, bias=True)
  (23): Sigmoid()
)LEARNING RATE : 8.09404342972328e-06	EPOCHS : 100
SCORE : 0.99876
MEAN ACCURACY : 0.9987600000000002
MEAN PRECISION : 0.9987600000000002
BEST ACCURACY : 0.99876
WORST ACCURACY  : 0.99876
BEST PRECISION  : 0.99876
WORST PRECISION : 0.99876


	MODEL
Sequential(
  (0): Linear(in_features=30, out_features=102, bias=True)
  (1): LeakyReLU(negative_slope=0.01)
  (2): Linear(in_features=102, out_features=35, bias=True)
  (3): LeakyReLU(negative_slope=0.01)
  (4): Linear(in_features=35, out_features=86, bias=True)
  (5): Sigmoid()
  (6): Linear(in_features=86, out_features=153, bias=True)
  (7): ReLU()
  (8): Linear(in_features=153, out_features=41, bias=True)
  (9): Tanh()
  (10): Linear(in_features=41, out_features=158, bias=True)
  (11): LeakyReLU(negative_slope=0.01)
  (12): Linear(in_features=158, out_features=77, bias=True)
  (13): Sigmoid()
  (14): Linear(in_features=77, out_features=11, bias=True)
  (15): Sigmoid()
  (16): Linear(in_features=11, out_features=53, bias=True)
  (17): Tanh()
  (18): Linear(in_features=53, out_features=173, bias=True)
  (19): ReLU()
  (20): Linear(in_features=173, out_features=187, bias=True)
  (21): ReLU()
  (22): Linear(in_features=187, out_features=152, bias=True)
  (23): Sigmoid()
  (24): Linear(in_features=152, out_features=159, bias=True)
  (25): Sigmoid()
  (26): Linear(in_features=159, out_features=66, bias=True)
  (27): ReLU()
  (28): Linear(in_features=66, out_features=184, bias=True)
  (29): LeakyReLU(negative_slope=0.01)
  (30): Linear(in_features=184, out_features=182, bias=True)
  (31): LeakyReLU(negative_slope=0.01)
  (32): Linear(in_features=182, out_features=182, bias=True)
  (33): LeakyReLU(negative_slope=0.01)
  (34): Linear(in_features=182, out_features=154, bias=True)
  (35): Tanh()
  (36): Linear(in_features=154, out_features=1, bias=True)
  (37): Sigmoid()
)LEARNING RATE : 2.677096388362465e-06	EPOCHS : 100
SCORE : 0.3891644444444444
MEAN ACCURACY : 0.16749333333333333
MEAN PRECISION : 0.16749333333333333
BEST ACCURACY : 0.99876
WORST ACCURACY  : 0.00124
BEST PRECISION  : 0.99876
WORST PRECISION : 0.00124


	MODEL
Sequential(
  (0): Linear(in_features=30, out_features=102, bias=True)
  (1): LeakyReLU(negative_slope=0.01)
  (2): Linear(in_features=102, out_features=35, bias=True)
  (3): LeakyReLU(negative_slope=0.01)
  (4): Linear(in_features=35, out_features=86, bias=True)
  (5): Sigmoid()
  (6): Linear(in_features=86, out_features=197, bias=True)
  (7): ReLU()
  (8): Linear(in_features=197, out_features=41, bias=True)
  (9): Tanh()
  (10): Linear(in_features=41, out_features=158, bias=True)
  (11): LeakyReLU(negative_slope=0.01)
  (12): Linear(in_features=158, out_features=77, bias=True)
  (13): Sigmoid()
  (14): Linear(in_features=77, out_features=11, bias=True)
  (15): Sigmoid()
  (16): Linear(in_features=11, out_features=12, bias=True)
  (17): Sigmoid()
  (18): Linear(in_features=12, out_features=78, bias=True)
  (19): ReLU()
  (20): Linear(in_features=78, out_features=187, bias=True)
  (21): ReLU()
  (22): Linear(in_features=187, out_features=1, bias=True)
  (23): Sigmoid()
)LEARNING RATE : 2.677096388362465e-06	EPOCHS : 100
SCORE : 0.6108355555555557
MEAN ACCURACY : 0.8325066666666668
MEAN PRECISION : 0.8325066666666668
BEST ACCURACY : 0.99876
WORST ACCURACY  : 0.00124
BEST PRECISION  : 0.99876
WORST PRECISION : 0.00124


	MODEL
Sequential(
  (0): Linear(in_features=30, out_features=102, bias=True)
  (1): LeakyReLU(negative_slope=0.01)
  (2): Linear(in_features=102, out_features=35, bias=True)
  (3): LeakyReLU(negative_slope=0.01)
  (4): Linear(in_features=35, out_features=86, bias=True)
  (5): Sigmoid()
  (6): Linear(in_features=86, out_features=153, bias=True)
  (7): ReLU()
  (8): Linear(in_features=153, out_features=41, bias=True)
  (9): Tanh()
  (10): Linear(in_features=41, out_features=164, bias=True)
  (11): ReLU()
  (12): Linear(in_features=164, out_features=77, bias=True)
  (13): Sigmoid()
  (14): Linear(in_features=77, out_features=11, bias=True)
  (15): Sigmoid()
  (16): Linear(in_features=11, out_features=53, bias=True)
  (17): Tanh()
  (18): Linear(in_features=53, out_features=173, bias=True)
  (19): ReLU()
  (20): Linear(in_features=173, out_features=187, bias=True)
  (21): ReLU()
  (22): Linear(in_features=187, out_features=152, bias=True)
  (23): Sigmoid()
  (24): Linear(in_features=152, out_features=159, bias=True)
  (25): Sigmoid()
  (26): Linear(in_features=159, out_features=66, bias=True)
  (27): ReLU()
  (28): Linear(in_features=66, out_features=184, bias=True)
  (29): LeakyReLU(negative_slope=0.01)
  (30): Linear(in_features=184, out_features=182, bias=True)
  (31): LeakyReLU(negative_slope=0.01)
  (32): Linear(in_features=182, out_features=182, bias=True)
  (33): LeakyReLU(negative_slope=0.01)
  (34): Linear(in_features=182, out_features=154, bias=True)
  (35): Tanh()
  (36): Linear(in_features=154, out_features=1, bias=True)
  (37): Sigmoid()
)LEARNING RATE : 2.677096388362465e-06	EPOCHS : 100
SCORE : 0.5665013333333334
MEAN ACCURACY : 0.699504
MEAN PRECISION : 0.699504
BEST ACCURACY : 0.99876
WORST ACCURACY  : 0.00124
BEST PRECISION  : 0.99876
WORST PRECISION : 0.00124


	MODEL
Sequential(
  (0): Linear(in_features=30, out_features=102, bias=True)
  (1): LeakyReLU(negative_slope=0.01)
  (2): Linear(in_features=102, out_features=35, bias=True)
  (3): LeakyReLU(negative_slope=0.01)
  (4): Linear(in_features=35, out_features=86, bias=True)
  (5): Sigmoid()
  (6): Linear(in_features=86, out_features=197, bias=True)
  (7): ReLU()
  (8): Linear(in_features=197, out_features=41, bias=True)
  (9): Tanh()
  (10): Linear(in_features=41, out_features=164, bias=True)
  (11): ReLU()
  (12): Linear(in_features=164, out_features=106, bias=True)
  (13): Tanh()
  (14): Linear(in_features=106, out_features=11, bias=True)
  (15): Sigmoid()
  (16): Linear(in_features=11, out_features=53, bias=True)
  (17): Tanh()
  (18): Linear(in_features=53, out_features=173, bias=True)
  (19): ReLU()
  (20): Linear(in_features=173, out_features=187, bias=True)
  (21): ReLU()
  (22): Linear(in_features=187, out_features=152, bias=True)
  (23): Sigmoid()
  (24): Linear(in_features=152, out_features=159, bias=True)
  (25): Sigmoid()
  (26): Linear(in_features=159, out_features=66, bias=True)
  (27): ReLU()
  (28): Linear(in_features=66, out_features=184, bias=True)
  (29): LeakyReLU(negative_slope=0.01)
  (30): Linear(in_features=184, out_features=182, bias=True)
  (31): LeakyReLU(negative_slope=0.01)
  (32): Linear(in_features=182, out_features=91, bias=True)
  (33): ReLU()
  (34): Linear(in_features=91, out_features=154, bias=True)
  (35): Tanh()
  (36): Linear(in_features=154, out_features=1, bias=True)
  (37): ReLU()
)LEARNING RATE : 2.677096388362465e-06	EPOCHS : 100
SCORE : 0.99876
MEAN ACCURACY : 0.9987600000000002
MEAN PRECISION : 0.9987600000000002
BEST ACCURACY : 0.99876
WORST ACCURACY  : 0.99876
BEST PRECISION  : 0.99876
WORST PRECISION : 0.99876


	MODEL
Sequential(
  (0): Linear(in_features=30, out_features=102, bias=True)
  (1): LeakyReLU(negative_slope=0.01)
  (2): Linear(in_features=102, out_features=199, bias=True)
  (3): Tanh()
  (4): Linear(in_features=199, out_features=86, bias=True)
  (5): Sigmoid()
  (6): Linear(in_features=86, out_features=197, bias=True)
  (7): ReLU()
  (8): Linear(in_features=197, out_features=41, bias=True)
  (9): Tanh()
  (10): Linear(in_features=41, out_features=158, bias=True)
  (11): LeakyReLU(negative_slope=0.01)
  (12): Linear(in_features=158, out_features=106, bias=True)
  (13): Tanh()
  (14): Linear(in_features=106, out_features=11, bias=True)
  (15): Sigmoid()
  (16): Linear(in_features=11, out_features=12, bias=True)
  (17): Sigmoid()
  (18): Linear(in_features=12, out_features=173, bias=True)
  (19): ReLU()
  (20): Linear(in_features=173, out_features=187, bias=True)
  (21): ReLU()
  (22): Linear(in_features=187, out_features=1, bias=True)
  (23): Sigmoid()
)LEARNING RATE : 2.677096388362465e-06	EPOCHS : 100
SCORE : 0.99876
MEAN ACCURACY : 0.9987600000000002
MEAN PRECISION : 0.9987600000000002
BEST ACCURACY : 0.99876
WORST ACCURACY  : 0.99876
BEST PRECISION  : 0.99876
WORST PRECISION : 0.99876


	MODEL
Sequential(
  (0): Linear(in_features=30, out_features=165, bias=True)
  (1): Tanh()
  (2): Linear(in_features=165, out_features=199, bias=True)
  (3): Tanh()
  (4): Linear(in_features=199, out_features=86, bias=True)
  (5): Sigmoid()
  (6): Linear(in_features=86, out_features=197, bias=True)
  (7): ReLU()
  (8): Linear(in_features=197, out_features=6, bias=True)
  (9): Tanh()
  (10): Linear(in_features=6, out_features=158, bias=True)
  (11): LeakyReLU(negative_slope=0.01)
  (12): Linear(in_features=158, out_features=106, bias=True)
  (13): Tanh()
  (14): Linear(in_features=106, out_features=182, bias=True)
  (15): LeakyReLU(negative_slope=0.01)
  (16): Linear(in_features=182, out_features=12, bias=True)
  (17): Sigmoid()
  (18): Linear(in_features=12, out_features=173, bias=True)
  (19): ReLU()
  (20): Linear(in_features=173, out_features=187, bias=True)
  (21): ReLU()
  (22): Linear(in_features=187, out_features=152, bias=True)
  (23): Sigmoid()
  (24): Linear(in_features=152, out_features=175, bias=True)
  (25): ReLU()
  (26): Linear(in_features=175, out_features=66, bias=True)
  (27): ReLU()
  (28): Linear(in_features=66, out_features=60, bias=True)
  (29): ReLU()
  (30): Linear(in_features=60, out_features=182, bias=True)
  (31): LeakyReLU(negative_slope=0.01)
  (32): Linear(in_features=182, out_features=152, bias=True)
  (33): ReLU()
  (34): Linear(in_features=152, out_features=154, bias=True)
  (35): Tanh()
  (36): Linear(in_features=154, out_features=1, bias=True)
  (37): ReLU()
)LEARNING RATE : 8.09404342972328e-06	EPOCHS : 100
SCORE : 0.99876
MEAN ACCURACY : 0.9987600000000002
MEAN PRECISION : 0.9987600000000002
BEST ACCURACY : 0.99876
WORST ACCURACY  : 0.99876
BEST PRECISION  : 0.99876
WORST PRECISION : 0.99876


	MODEL
Sequential(
  (0): Linear(in_features=30, out_features=102, bias=True)
  (1): LeakyReLU(negative_slope=0.01)
  (2): Linear(in_features=102, out_features=35, bias=True)
  (3): LeakyReLU(negative_slope=0.01)
  (4): Linear(in_features=35, out_features=86, bias=True)
  (5): Sigmoid()
  (6): Linear(in_features=86, out_features=197, bias=True)
  (7): ReLU()
  (8): Linear(in_features=197, out_features=41, bias=True)
  (9): Tanh()
  (10): Linear(in_features=41, out_features=158, bias=True)
  (11): LeakyReLU(negative_slope=0.01)
  (12): Linear(in_features=158, out_features=106, bias=True)
  (13): Tanh()
  (14): Linear(in_features=106, out_features=11, bias=True)
  (15): Sigmoid()
  (16): Linear(in_features=11, out_features=12, bias=True)
  (17): Sigmoid()
  (18): Linear(in_features=12, out_features=78, bias=True)
  (19): ReLU()
  (20): Linear(in_features=78, out_features=187, bias=True)
  (21): ReLU()
  (22): Linear(in_features=187, out_features=1, bias=True)
  (23): Sigmoid()
)LEARNING RATE : 2.677096388362465e-06	EPOCHS : 100
SCORE : 0.99876
MEAN ACCURACY : 0.9987600000000002
MEAN PRECISION : 0.9987600000000002
BEST ACCURACY : 0.99876
WORST ACCURACY  : 0.99876
BEST PRECISION  : 0.99876
WORST PRECISION : 0.99876


	MODEL
Sequential(
  (0): Linear(in_features=30, out_features=102, bias=True)
  (1): LeakyReLU(negative_slope=0.01)
  (2): Linear(in_features=102, out_features=35, bias=True)
  (3): LeakyReLU(negative_slope=0.01)
  (4): Linear(in_features=35, out_features=86, bias=True)
  (5): Sigmoid()
  (6): Linear(in_features=86, out_features=197, bias=True)
  (7): ReLU()
  (8): Linear(in_features=197, out_features=41, bias=True)
  (9): Tanh()
  (10): Linear(in_features=41, out_features=158, bias=True)
  (11): LeakyReLU(negative_slope=0.01)
  (12): Linear(in_features=158, out_features=77, bias=True)
  (13): Sigmoid()
  (14): Linear(in_features=77, out_features=11, bias=True)
  (15): Sigmoid()
  (16): Linear(in_features=11, out_features=12, bias=True)
  (17): Sigmoid()
  (18): Linear(in_features=12, out_features=173, bias=True)
  (19): ReLU()
  (20): Linear(in_features=173, out_features=187, bias=True)
  (21): ReLU()
  (22): Linear(in_features=187, out_features=152, bias=True)
  (23): Sigmoid()
  (24): Linear(in_features=152, out_features=136, bias=True)
  (25): ReLU()
  (26): Linear(in_features=136, out_features=66, bias=True)
  (27): ReLU()
  (28): Linear(in_features=66, out_features=184, bias=True)
  (29): LeakyReLU(negative_slope=0.01)
  (30): Linear(in_features=184, out_features=1, bias=True)
  (31): ReLU()
  (32): Linear(in_features=1, out_features=189, bias=True)
  (33): ReLU()
  (34): Linear(in_features=189, out_features=154, bias=True)
  (35): Tanh()
  (36): Linear(in_features=154, out_features=1, bias=True)
  (37): Sigmoid()
)LEARNING RATE : 2.677096388362465e-06	EPOCHS : 100
SCORE : 0.5665013333333334
MEAN ACCURACY : 0.699504
MEAN PRECISION : 0.699504
BEST ACCURACY : 0.99876
WORST ACCURACY  : 0.00124
BEST PRECISION  : 0.99876
WORST PRECISION : 0.00124


	MODEL
Sequential(
  (0): Linear(in_features=30, out_features=102, bias=True)
  (1): LeakyReLU(negative_slope=0.01)
  (2): Linear(in_features=102, out_features=35, bias=True)
  (3): LeakyReLU(negative_slope=0.01)
  (4): Linear(in_features=35, out_features=86, bias=True)
  (5): Sigmoid()
  (6): Linear(in_features=86, out_features=153, bias=True)
  (7): ReLU()
  (8): Linear(in_features=153, out_features=41, bias=True)
  (9): Tanh()
  (10): Linear(in_features=41, out_features=164, bias=True)
  (11): ReLU()
  (12): Linear(in_features=164, out_features=77, bias=True)
  (13): Sigmoid()
  (14): Linear(in_features=77, out_features=11, bias=True)
  (15): Sigmoid()
  (16): Linear(in_features=11, out_features=53, bias=True)
  (17): Tanh()
  (18): Linear(in_features=53, out_features=173, bias=True)
  (19): ReLU()
  (20): Linear(in_features=173, out_features=116, bias=True)
  (21): ReLU()
  (22): Linear(in_features=116, out_features=36, bias=True)
  (23): LeakyReLU(negative_slope=0.01)
  (24): Linear(in_features=36, out_features=159, bias=True)
  (25): Sigmoid()
  (26): Linear(in_features=159, out_features=164, bias=True)
  (27): Sigmoid()
  (28): Linear(in_features=164, out_features=184, bias=True)
  (29): LeakyReLU(negative_slope=0.01)
  (30): Linear(in_features=184, out_features=182, bias=True)
  (31): LeakyReLU(negative_slope=0.01)
  (32): Linear(in_features=182, out_features=182, bias=True)
  (33): LeakyReLU(negative_slope=0.01)
  (34): Linear(in_features=182, out_features=154, bias=True)
  (35): Tanh()
  (36): Linear(in_features=154, out_features=1, bias=True)
  (37): Sigmoid()
)LEARNING RATE : 2.677096388362465e-06	EPOCHS : 100
SCORE : 0.6551697777777777
MEAN ACCURACY : 0.9655093333333331
MEAN PRECISION : 0.9655093333333331
BEST ACCURACY : 0.99876
WORST ACCURACY  : 0.00124
BEST PRECISION  : 0.99876
WORST PRECISION : 0.00124


	MODEL
Sequential(
  (0): Linear(in_features=30, out_features=102, bias=True)
  (1): LeakyReLU(negative_slope=0.01)
  (2): Linear(in_features=102, out_features=35, bias=True)
  (3): LeakyReLU(negative_slope=0.01)
  (4): Linear(in_features=35, out_features=86, bias=True)
  (5): Sigmoid()
  (6): Linear(in_features=86, out_features=197, bias=True)
  (7): ReLU()
  (8): Linear(in_features=197, out_features=41, bias=True)
  (9): Tanh()
  (10): Linear(in_features=41, out_features=158, bias=True)
  (11): LeakyReLU(negative_slope=0.01)
  (12): Linear(in_features=158, out_features=106, bias=True)
  (13): Tanh()
  (14): Linear(in_features=106, out_features=11, bias=True)
  (15): Sigmoid()
  (16): Linear(in_features=11, out_features=53, bias=True)
  (17): Tanh()
  (18): Linear(in_features=53, out_features=173, bias=True)
  (19): ReLU()
  (20): Linear(in_features=173, out_features=187, bias=True)
  (21): ReLU()
  (22): Linear(in_features=187, out_features=152, bias=True)
  (23): Sigmoid()
  (24): Linear(in_features=152, out_features=175, bias=True)
  (25): ReLU()
  (26): Linear(in_features=175, out_features=66, bias=True)
  (27): ReLU()
  (28): Linear(in_features=66, out_features=184, bias=True)
  (29): LeakyReLU(negative_slope=0.01)
  (30): Linear(in_features=184, out_features=182, bias=True)
  (31): LeakyReLU(negative_slope=0.01)
  (32): Linear(in_features=182, out_features=91, bias=True)
  (33): ReLU()
  (34): Linear(in_features=91, out_features=154, bias=True)
  (35): Tanh()
  (36): Linear(in_features=154, out_features=1, bias=True)
  (37): ReLU()
)LEARNING RATE : 2.677096388362465e-06	EPOCHS : 100
SCORE : 0.9987599999999999
MEAN ACCURACY : 0.9987599999999998
MEAN PRECISION : 0.9987599999999998
BEST ACCURACY : 0.99876
WORST ACCURACY  : 0.99876
BEST PRECISION  : 0.99876
WORST PRECISION : 0.99876


	MODEL
Sequential(
  (0): Linear(in_features=30, out_features=165, bias=True)
  (1): Tanh()
  (2): Linear(in_features=165, out_features=35, bias=True)
  (3): LeakyReLU(negative_slope=0.01)
  (4): Linear(in_features=35, out_features=86, bias=True)
  (5): Sigmoid()
  (6): Linear(in_features=86, out_features=197, bias=True)
  (7): ReLU()
  (8): Linear(in_features=197, out_features=41, bias=True)
  (9): Tanh()
  (10): Linear(in_features=41, out_features=158, bias=True)
  (11): LeakyReLU(negative_slope=0.01)
  (12): Linear(in_features=158, out_features=106, bias=True)
  (13): Tanh()
  (14): Linear(in_features=106, out_features=11, bias=True)
  (15): Sigmoid()
  (16): Linear(in_features=11, out_features=53, bias=True)
  (17): Tanh()
  (18): Linear(in_features=53, out_features=78, bias=True)
  (19): ReLU()
  (20): Linear(in_features=78, out_features=187, bias=True)
  (21): ReLU()
  (22): Linear(in_features=187, out_features=1, bias=True)
  (23): Sigmoid()
)LEARNING RATE : 8.09404342972328e-06	EPOCHS : 100
SCORE : 0.9987599999999999
MEAN ACCURACY : 0.9987599999999998
MEAN PRECISION : 0.9987599999999998
BEST ACCURACY : 0.99876
WORST ACCURACY  : 0.99876
BEST PRECISION  : 0.99876
WORST PRECISION : 0.99876


	MODEL
Sequential(
  (0): Linear(in_features=30, out_features=102, bias=True)
  (1): LeakyReLU(negative_slope=0.01)
  (2): Linear(in_features=102, out_features=35, bias=True)
  (3): LeakyReLU(negative_slope=0.01)
  (4): Linear(in_features=35, out_features=86, bias=True)
  (5): Sigmoid()
  (6): Linear(in_features=86, out_features=153, bias=True)
  (7): ReLU()
  (8): Linear(in_features=153, out_features=41, bias=True)
  (9): Tanh()
  (10): Linear(in_features=41, out_features=158, bias=True)
  (11): LeakyReLU(negative_slope=0.01)
  (12): Linear(in_features=158, out_features=77, bias=True)
  (13): Sigmoid()
  (14): Linear(in_features=77, out_features=11, bias=True)
  (15): Sigmoid()
  (16): Linear(in_features=11, out_features=53, bias=True)
  (17): Tanh()
  (18): Linear(in_features=53, out_features=173, bias=True)
  (19): ReLU()
  (20): Linear(in_features=173, out_features=187, bias=True)
  (21): ReLU()
  (22): Linear(in_features=187, out_features=152, bias=True)
  (23): Sigmoid()
  (24): Linear(in_features=152, out_features=159, bias=True)
  (25): Sigmoid()
  (26): Linear(in_features=159, out_features=66, bias=True)
  (27): ReLU()
  (28): Linear(in_features=66, out_features=184, bias=True)
  (29): LeakyReLU(negative_slope=0.01)
  (30): Linear(in_features=184, out_features=182, bias=True)
  (31): LeakyReLU(negative_slope=0.01)
  (32): Linear(in_features=182, out_features=182, bias=True)
  (33): LeakyReLU(negative_slope=0.01)
  (34): Linear(in_features=182, out_features=154, bias=True)
  (35): Tanh()
  (36): Linear(in_features=154, out_features=1, bias=True)
  (37): Sigmoid()
)LEARNING RATE : 2.677096388362465e-06	EPOCHS : 100
SCORE : 0.5277088888888889
MEAN ACCURACY : 0.5831266666666666
MEAN PRECISION : 0.5831266666666666
BEST ACCURACY : 0.99876
WORST ACCURACY  : 0.00124
BEST PRECISION  : 0.99876
WORST PRECISION : 0.00124


	MODEL
Sequential(
  (0): Linear(in_features=30, out_features=102, bias=True)
  (1): LeakyReLU(negative_slope=0.01)
  (2): Linear(in_features=102, out_features=35, bias=True)
  (3): LeakyReLU(negative_slope=0.01)
  (4): Linear(in_features=35, out_features=86, bias=True)
  (5): Sigmoid()
  (6): Linear(in_features=86, out_features=197, bias=True)
  (7): ReLU()
  (8): Linear(in_features=197, out_features=41, bias=True)
  (9): Tanh()
  (10): Linear(in_features=41, out_features=158, bias=True)
  (11): LeakyReLU(negative_slope=0.01)
  (12): Linear(in_features=158, out_features=77, bias=True)
  (13): Sigmoid()
  (14): Linear(in_features=77, out_features=11, bias=True)
  (15): Sigmoid()
  (16): Linear(in_features=11, out_features=12, bias=True)
  (17): Sigmoid()
  (18): Linear(in_features=12, out_features=78, bias=True)
  (19): ReLU()
  (20): Linear(in_features=78, out_features=187, bias=True)
  (21): ReLU()
  (22): Linear(in_features=187, out_features=1, bias=True)
  (23): Sigmoid()
)LEARNING RATE : 2.677096388362465e-06	EPOCHS : 100
SCORE : 0.6385444444444445
MEAN ACCURACY : 0.9156333333333332
MEAN PRECISION : 0.9156333333333332
BEST ACCURACY : 0.99876
WORST ACCURACY  : 0.00124
BEST PRECISION  : 0.99876
WORST PRECISION : 0.00124


	MODEL
Sequential(
  (0): Linear(in_features=30, out_features=102, bias=True)
  (1): LeakyReLU(negative_slope=0.01)
  (2): Linear(in_features=102, out_features=35, bias=True)
  (3): LeakyReLU(negative_slope=0.01)
  (4): Linear(in_features=35, out_features=86, bias=True)
  (5): Sigmoid()
  (6): Linear(in_features=86, out_features=153, bias=True)
  (7): ReLU()
  (8): Linear(in_features=153, out_features=41, bias=True)
  (9): Tanh()
  (10): Linear(in_features=41, out_features=164, bias=True)
  (11): ReLU()
  (12): Linear(in_features=164, out_features=77, bias=True)
  (13): Sigmoid()
  (14): Linear(in_features=77, out_features=11, bias=True)
  (15): Sigmoid()
  (16): Linear(in_features=11, out_features=53, bias=True)
  (17): Tanh()
  (18): Linear(in_features=53, out_features=173, bias=True)
  (19): ReLU()
  (20): Linear(in_features=173, out_features=187, bias=True)
  (21): ReLU()
  (22): Linear(in_features=187, out_features=152, bias=True)
  (23): Sigmoid()
  (24): Linear(in_features=152, out_features=159, bias=True)
  (25): Sigmoid()
  (26): Linear(in_features=159, out_features=66, bias=True)
  (27): ReLU()
  (28): Linear(in_features=66, out_features=184, bias=True)
  (29): LeakyReLU(negative_slope=0.01)
  (30): Linear(in_features=184, out_features=182, bias=True)
  (31): LeakyReLU(negative_slope=0.01)
  (32): Linear(in_features=182, out_features=182, bias=True)
  (33): LeakyReLU(negative_slope=0.01)
  (34): Linear(in_features=182, out_features=154, bias=True)
  (35): Tanh()
  (36): Linear(in_features=154, out_features=1, bias=True)
  (37): Sigmoid()
)LEARNING RATE : 2.677096388362465e-06	EPOCHS : 100
SCORE : 0.6163773333333332
MEAN ACCURACY : 0.8491319999999997
MEAN PRECISION : 0.8491319999999997
BEST ACCURACY : 0.99876
WORST ACCURACY  : 0.00124
BEST PRECISION  : 0.99876
WORST PRECISION : 0.00124


	MODEL
Sequential(
  (0): Linear(in_features=30, out_features=102, bias=True)
  (1): LeakyReLU(negative_slope=0.01)
  (2): Linear(in_features=102, out_features=35, bias=True)
  (3): LeakyReLU(negative_slope=0.01)
  (4): Linear(in_features=35, out_features=86, bias=True)
  (5): Sigmoid()
  (6): Linear(in_features=86, out_features=197, bias=True)
  (7): ReLU()
  (8): Linear(in_features=197, out_features=41, bias=True)
  (9): Tanh()
  (10): Linear(in_features=41, out_features=164, bias=True)
  (11): ReLU()
  (12): Linear(in_features=164, out_features=106, bias=True)
  (13): Tanh()
  (14): Linear(in_features=106, out_features=11, bias=True)
  (15): Sigmoid()
  (16): Linear(in_features=11, out_features=53, bias=True)
  (17): Tanh()
  (18): Linear(in_features=53, out_features=173, bias=True)
  (19): ReLU()
  (20): Linear(in_features=173, out_features=187, bias=True)
  (21): ReLU()
  (22): Linear(in_features=187, out_features=152, bias=True)
  (23): Sigmoid()
  (24): Linear(in_features=152, out_features=159, bias=True)
  (25): Sigmoid()
  (26): Linear(in_features=159, out_features=66, bias=True)
  (27): ReLU()
  (28): Linear(in_features=66, out_features=184, bias=True)
  (29): LeakyReLU(negative_slope=0.01)
  (30): Linear(in_features=184, out_features=182, bias=True)
  (31): LeakyReLU(negative_slope=0.01)
  (32): Linear(in_features=182, out_features=91, bias=True)
  (33): ReLU()
  (34): Linear(in_features=91, out_features=154, bias=True)
  (35): Tanh()
  (36): Linear(in_features=154, out_features=1, bias=True)
  (37): ReLU()
)LEARNING RATE : 2.677096388362465e-06	EPOCHS : 100
SCORE : 0.9987599999999999
MEAN ACCURACY : 0.9987599999999998
MEAN PRECISION : 0.9987599999999998
BEST ACCURACY : 0.99876
WORST ACCURACY  : 0.99876
BEST PRECISION  : 0.99876
WORST PRECISION : 0.99876


	MODEL
Sequential(
  (0): Linear(in_features=30, out_features=102, bias=True)
  (1): LeakyReLU(negative_slope=0.01)
  (2): Linear(in_features=102, out_features=199, bias=True)
  (3): Tanh()
  (4): Linear(in_features=199, out_features=86, bias=True)
  (5): Sigmoid()
  (6): Linear(in_features=86, out_features=197, bias=True)
  (7): ReLU()
  (8): Linear(in_features=197, out_features=41, bias=True)
  (9): Tanh()
  (10): Linear(in_features=41, out_features=158, bias=True)
  (11): LeakyReLU(negative_slope=0.01)
  (12): Linear(in_features=158, out_features=106, bias=True)
  (13): Tanh()
  (14): Linear(in_features=106, out_features=11, bias=True)
  (15): Sigmoid()
  (16): Linear(in_features=11, out_features=12, bias=True)
  (17): Sigmoid()
  (18): Linear(in_features=12, out_features=173, bias=True)
  (19): ReLU()
  (20): Linear(in_features=173, out_features=187, bias=True)
  (21): ReLU()
  (22): Linear(in_features=187, out_features=1, bias=True)
  (23): Sigmoid()
)LEARNING RATE : 2.677096388362465e-06	EPOCHS : 100
SCORE : 0.9987599999999999
MEAN ACCURACY : 0.9987599999999998
MEAN PRECISION : 0.9987599999999998
BEST ACCURACY : 0.99876
WORST ACCURACY  : 0.99876
BEST PRECISION  : 0.99876
WORST PRECISION : 0.99876


	MODEL
Sequential(
  (0): Linear(in_features=30, out_features=165, bias=True)
  (1): Tanh()
  (2): Linear(in_features=165, out_features=199, bias=True)
  (3): Tanh()
  (4): Linear(in_features=199, out_features=86, bias=True)
  (5): Sigmoid()
  (6): Linear(in_features=86, out_features=197, bias=True)
  (7): ReLU()
  (8): Linear(in_features=197, out_features=6, bias=True)
  (9): Tanh()
  (10): Linear(in_features=6, out_features=158, bias=True)
  (11): LeakyReLU(negative_slope=0.01)
  (12): Linear(in_features=158, out_features=106, bias=True)
  (13): Tanh()
  (14): Linear(in_features=106, out_features=182, bias=True)
  (15): LeakyReLU(negative_slope=0.01)
  (16): Linear(in_features=182, out_features=12, bias=True)
  (17): Sigmoid()
  (18): Linear(in_features=12, out_features=173, bias=True)
  (19): ReLU()
  (20): Linear(in_features=173, out_features=187, bias=True)
  (21): ReLU()
  (22): Linear(in_features=187, out_features=152, bias=True)
  (23): Sigmoid()
  (24): Linear(in_features=152, out_features=175, bias=True)
  (25): ReLU()
  (26): Linear(in_features=175, out_features=66, bias=True)
  (27): ReLU()
  (28): Linear(in_features=66, out_features=60, bias=True)
  (29): ReLU()
  (30): Linear(in_features=60, out_features=182, bias=True)
  (31): LeakyReLU(negative_slope=0.01)
  (32): Linear(in_features=182, out_features=152, bias=True)
  (33): ReLU()
  (34): Linear(in_features=152, out_features=154, bias=True)
  (35): Tanh()
  (36): Linear(in_features=154, out_features=1, bias=True)
  (37): ReLU()
)LEARNING RATE : 8.09404342972328e-06	EPOCHS : 100
SCORE : 0.9987599999999999
MEAN ACCURACY : 0.9987599999999998
MEAN PRECISION : 0.9987599999999998
BEST ACCURACY : 0.99876
WORST ACCURACY  : 0.99876
BEST PRECISION  : 0.99876
WORST PRECISION : 0.99876


	MODEL
Sequential(
  (0): Linear(in_features=30, out_features=102, bias=True)
  (1): LeakyReLU(negative_slope=0.01)
  (2): Linear(in_features=102, out_features=35, bias=True)
  (3): LeakyReLU(negative_slope=0.01)
  (4): Linear(in_features=35, out_features=86, bias=True)
  (5): Sigmoid()
  (6): Linear(in_features=86, out_features=197, bias=True)
  (7): ReLU()
  (8): Linear(in_features=197, out_features=41, bias=True)
  (9): Tanh()
  (10): Linear(in_features=41, out_features=158, bias=True)
  (11): LeakyReLU(negative_slope=0.01)
  (12): Linear(in_features=158, out_features=106, bias=True)
  (13): Tanh()
  (14): Linear(in_features=106, out_features=11, bias=True)
  (15): Sigmoid()
  (16): Linear(in_features=11, out_features=12, bias=True)
  (17): Sigmoid()
  (18): Linear(in_features=12, out_features=78, bias=True)
  (19): ReLU()
  (20): Linear(in_features=78, out_features=187, bias=True)
  (21): ReLU()
  (22): Linear(in_features=187, out_features=1, bias=True)
  (23): Sigmoid()
)LEARNING RATE : 2.677096388362465e-06	EPOCHS : 100
SCORE : 0.9987599999999999
MEAN ACCURACY : 0.9987599999999998
MEAN PRECISION : 0.9987599999999998
BEST ACCURACY : 0.99876
WORST ACCURACY  : 0.99876
BEST PRECISION  : 0.99876
WORST PRECISION : 0.99876


	MODEL
Sequential(
  (0): Linear(in_features=30, out_features=102, bias=True)
  (1): LeakyReLU(negative_slope=0.01)
  (2): Linear(in_features=102, out_features=35, bias=True)
  (3): LeakyReLU(negative_slope=0.01)
  (4): Linear(in_features=35, out_features=86, bias=True)
  (5): Sigmoid()
  (6): Linear(in_features=86, out_features=197, bias=True)
  (7): ReLU()
  (8): Linear(in_features=197, out_features=41, bias=True)
  (9): Tanh()
  (10): Linear(in_features=41, out_features=158, bias=True)
  (11): LeakyReLU(negative_slope=0.01)
  (12): Linear(in_features=158, out_features=77, bias=True)
  (13): Sigmoid()
  (14): Linear(in_features=77, out_features=11, bias=True)
  (15): Sigmoid()
  (16): Linear(in_features=11, out_features=12, bias=True)
  (17): Sigmoid()
  (18): Linear(in_features=12, out_features=173, bias=True)
  (19): ReLU()
  (20): Linear(in_features=173, out_features=187, bias=True)
  (21): ReLU()
  (22): Linear(in_features=187, out_features=152, bias=True)
  (23): Sigmoid()
  (24): Linear(in_features=152, out_features=136, bias=True)
  (25): ReLU()
  (26): Linear(in_features=136, out_features=66, bias=True)
  (27): ReLU()
  (28): Linear(in_features=66, out_features=184, bias=True)
  (29): LeakyReLU(negative_slope=0.01)
  (30): Linear(in_features=184, out_features=1, bias=True)
  (31): ReLU()
  (32): Linear(in_features=1, out_features=189, bias=True)
  (33): ReLU()
  (34): Linear(in_features=189, out_features=154, bias=True)
  (35): Tanh()
  (36): Linear(in_features=154, out_features=1, bias=True)
  (37): Sigmoid()
)LEARNING RATE : 2.677096388362465e-06	EPOCHS : 100
SCORE : 0.6163773333333332
MEAN ACCURACY : 0.8491319999999997
MEAN PRECISION : 0.8491319999999997
BEST ACCURACY : 0.99876
WORST ACCURACY  : 0.00124
BEST PRECISION  : 0.99876
WORST PRECISION : 0.00124


	MODEL
Sequential(
  (0): Linear(in_features=30, out_features=58, bias=True)
  (1): Tanh()
  (2): Linear(in_features=58, out_features=199, bias=True)
  (3): Sigmoid()
  (4): Linear(in_features=199, out_features=86, bias=True)
  (5): Sigmoid()
  (6): Linear(in_features=86, out_features=197, bias=True)
  (7): ReLU()
  (8): Linear(in_features=197, out_features=6, bias=True)
  (9): Tanh()
  (10): Linear(in_features=6, out_features=28, bias=True)
  (11): LeakyReLU(negative_slope=0.01)
  (12): Linear(in_features=28, out_features=106, bias=True)
  (13): Tanh()
  (14): Linear(in_features=106, out_features=182, bias=True)
  (15): LeakyReLU(negative_slope=0.01)
  (16): Linear(in_features=182, out_features=12, bias=True)
  (17): Sigmoid()
  (18): Linear(in_features=12, out_features=158, bias=True)
  (19): ReLU()
  (20): Linear(in_features=158, out_features=187, bias=True)
  (21): LeakyReLU(negative_slope=0.01)
  (22): Linear(in_features=187, out_features=1, bias=True)
  (23): Sigmoid()
)LEARNING RATE : 8.09404342972328e-06	EPOCHS : 100
SCORE : 0.9987599999999999
MEAN ACCURACY : 0.9987599999999998
MEAN PRECISION : 0.9987599999999998
BEST ACCURACY : 0.99876
WORST ACCURACY  : 0.99876
BEST PRECISION  : 0.99876
WORST PRECISION : 0.99876


	MODEL
Sequential(
  (0): Linear(in_features=30, out_features=102, bias=True)
  (1): LeakyReLU(negative_slope=0.01)
  (2): Linear(in_features=102, out_features=35, bias=True)
  (3): LeakyReLU(negative_slope=0.01)
  (4): Linear(in_features=35, out_features=86, bias=True)
  (5): Sigmoid()
  (6): Linear(in_features=86, out_features=197, bias=True)
  (7): ReLU()
  (8): Linear(in_features=197, out_features=41, bias=True)
  (9): Tanh()
  (10): Linear(in_features=41, out_features=158, bias=True)
  (11): LeakyReLU(negative_slope=0.01)
  (12): Linear(in_features=158, out_features=106, bias=True)
  (13): Tanh()
  (14): Linear(in_features=106, out_features=11, bias=True)
  (15): Sigmoid()
  (16): Linear(in_features=11, out_features=53, bias=True)
  (17): Tanh()
  (18): Linear(in_features=53, out_features=173, bias=True)
  (19): ReLU()
  (20): Linear(in_features=173, out_features=187, bias=True)
  (21): ReLU()
  (22): Linear(in_features=187, out_features=152, bias=True)
  (23): Sigmoid()
  (24): Linear(in_features=152, out_features=175, bias=True)
  (25): ReLU()
  (26): Linear(in_features=175, out_features=66, bias=True)
  (27): ReLU()
  (28): Linear(in_features=66, out_features=184, bias=True)
  (29): LeakyReLU(negative_slope=0.01)
  (30): Linear(in_features=184, out_features=182, bias=True)
  (31): LeakyReLU(negative_slope=0.01)
  (32): Linear(in_features=182, out_features=91, bias=True)
  (33): ReLU()
  (34): Linear(in_features=91, out_features=154, bias=True)
  (35): Tanh()
  (36): Linear(in_features=154, out_features=1, bias=True)
  (37): ReLU()
)LEARNING RATE : 2.677096388362465e-06	EPOCHS : 100
SCORE : 0.99876
MEAN ACCURACY : 0.9987600000000002
MEAN PRECISION : 0.9987600000000002
BEST ACCURACY : 0.99876
WORST ACCURACY  : 0.99876
BEST PRECISION  : 0.99876
WORST PRECISION : 0.99876


	MODEL
Sequential(
  (0): Linear(in_features=30, out_features=102, bias=True)
  (1): Sigmoid()
  (2): Linear(in_features=102, out_features=35, bias=True)
  (3): LeakyReLU(negative_slope=0.01)
  (4): Linear(in_features=35, out_features=86, bias=True)
  (5): Sigmoid()
  (6): Linear(in_features=86, out_features=197, bias=True)
  (7): ReLU()
  (8): Linear(in_features=197, out_features=41, bias=True)
  (9): Tanh()
  (10): Linear(in_features=41, out_features=158, bias=True)
  (11): LeakyReLU(negative_slope=0.01)
  (12): Linear(in_features=158, out_features=106, bias=True)
  (13): Tanh()
  (14): Linear(in_features=106, out_features=11, bias=True)
  (15): Sigmoid()
  (16): Linear(in_features=11, out_features=158, bias=True)
  (17): Tanh()
  (18): Linear(in_features=158, out_features=173, bias=True)
  (19): ReLU()
  (20): Linear(in_features=173, out_features=187, bias=True)
  (21): ReLU()
  (22): Linear(in_features=187, out_features=152, bias=True)
  (23): Sigmoid()
  (24): Linear(in_features=152, out_features=175, bias=True)
  (25): ReLU()
  (26): Linear(in_features=175, out_features=66, bias=True)
  (27): Tanh()
  (28): Linear(in_features=66, out_features=184, bias=True)
  (29): LeakyReLU(negative_slope=0.01)
  (30): Linear(in_features=184, out_features=182, bias=True)
  (31): LeakyReLU(negative_slope=0.01)
  (32): Linear(in_features=182, out_features=91, bias=True)
  (33): ReLU()
  (34): Linear(in_features=91, out_features=154, bias=True)
  (35): Tanh()
  (36): Linear(in_features=154, out_features=1, bias=True)
  (37): ReLU()
)LEARNING RATE : 2.677096388362465e-06	EPOCHS : 100
SCORE : 0.99876
MEAN ACCURACY : 0.9987600000000002
MEAN PRECISION : 0.9987600000000002
BEST ACCURACY : 0.99876
WORST ACCURACY  : 0.99876
BEST PRECISION  : 0.99876
WORST PRECISION : 0.99876


	MODEL
Sequential(
  (0): Linear(in_features=30, out_features=165, bias=True)
  (1): Tanh()
  (2): Linear(in_features=165, out_features=199, bias=True)
  (3): Tanh()
  (4): Linear(in_features=199, out_features=102, bias=True)
  (5): Sigmoid()
  (6): Linear(in_features=102, out_features=197, bias=True)
  (7): ReLU()
  (8): Linear(in_features=197, out_features=6, bias=True)
  (9): LeakyReLU(negative_slope=0.01)
  (10): Linear(in_features=6, out_features=158, bias=True)
  (11): LeakyReLU(negative_slope=0.01)
  (12): Linear(in_features=158, out_features=106, bias=True)
  (13): Tanh()
  (14): Linear(in_features=106, out_features=11, bias=True)
  (15): Sigmoid()
  (16): Linear(in_features=11, out_features=158, bias=True)
  (17): Tanh()
  (18): Linear(in_features=158, out_features=78, bias=True)
  (19): ReLU()
  (20): Linear(in_features=78, out_features=187, bias=True)
  (21): ReLU()
  (22): Linear(in_features=187, out_features=152, bias=True)
  (23): Sigmoid()
  (24): Linear(in_features=152, out_features=86, bias=True)
  (25): ReLU()
  (26): Linear(in_features=86, out_features=49, bias=True)
  (27): ReLU()
  (28): Linear(in_features=49, out_features=163, bias=True)
  (29): ReLU()
  (30): Linear(in_features=163, out_features=47, bias=True)
  (31): ReLU()
  (32): Linear(in_features=47, out_features=39, bias=True)
  (33): ReLU()
  (34): Linear(in_features=39, out_features=154, bias=True)
  (35): Tanh()
  (36): Linear(in_features=154, out_features=1, bias=True)
  (37): ReLU()
)LEARNING RATE : 8.09404342972328e-06	EPOCHS : 100
SCORE : 0.99876
MEAN ACCURACY : 0.9987600000000002
MEAN PRECISION : 0.9987600000000002
BEST ACCURACY : 0.99876
WORST ACCURACY  : 0.99876
BEST PRECISION  : 0.99876
WORST PRECISION : 0.99876


	MODEL
Sequential(
  (0): Linear(in_features=30, out_features=165, bias=True)
  (1): Tanh()
  (2): Linear(in_features=165, out_features=199, bias=True)
  (3): Tanh()
  (4): Linear(in_features=199, out_features=102, bias=True)
  (5): Sigmoid()
  (6): Linear(in_features=102, out_features=197, bias=True)
  (7): ReLU()
  (8): Linear(in_features=197, out_features=6, bias=True)
  (9): LeakyReLU(negative_slope=0.01)
  (10): Linear(in_features=6, out_features=158, bias=True)
  (11): LeakyReLU(negative_slope=0.01)
  (12): Linear(in_features=158, out_features=106, bias=True)
  (13): Tanh()
  (14): Linear(in_features=106, out_features=102, bias=True)
  (15): ReLU()
  (16): Linear(in_features=102, out_features=12, bias=True)
  (17): Sigmoid()
  (18): Linear(in_features=12, out_features=78, bias=True)
  (19): ReLU()
  (20): Linear(in_features=78, out_features=187, bias=True)
  (21): ReLU()
  (22): Linear(in_features=187, out_features=1, bias=True)
  (23): Sigmoid()
)LEARNING RATE : 8.09404342972328e-06	EPOCHS : 100
SCORE : 0.99876
MEAN ACCURACY : 0.9987600000000002
MEAN PRECISION : 0.9987600000000002
BEST ACCURACY : 0.99876
WORST ACCURACY  : 0.99876
BEST PRECISION  : 0.99876
WORST PRECISION : 0.99876


	MODEL
Sequential(
  (0): Linear(in_features=30, out_features=165, bias=True)
  (1): Tanh()
  (2): Linear(in_features=165, out_features=199, bias=True)
  (3): Tanh()
  (4): Linear(in_features=199, out_features=102, bias=True)
  (5): Sigmoid()
  (6): Linear(in_features=102, out_features=197, bias=True)
  (7): ReLU()
  (8): Linear(in_features=197, out_features=6, bias=True)
  (9): LeakyReLU(negative_slope=0.01)
  (10): Linear(in_features=6, out_features=158, bias=True)
  (11): LeakyReLU(negative_slope=0.01)
  (12): Linear(in_features=158, out_features=106, bias=True)
  (13): Tanh()
  (14): Linear(in_features=106, out_features=11, bias=True)
  (15): Sigmoid()
  (16): Linear(in_features=11, out_features=158, bias=True)
  (17): Tanh()
  (18): Linear(in_features=158, out_features=78, bias=True)
  (19): ReLU()
  (20): Linear(in_features=78, out_features=187, bias=True)
  (21): ReLU()
  (22): Linear(in_features=187, out_features=152, bias=True)
  (23): Sigmoid()
  (24): Linear(in_features=152, out_features=175, bias=True)
  (25): ReLU()
  (26): Linear(in_features=175, out_features=66, bias=True)
  (27): Tanh()
  (28): Linear(in_features=66, out_features=184, bias=True)
  (29): LeakyReLU(negative_slope=0.01)
  (30): Linear(in_features=184, out_features=182, bias=True)
  (31): LeakyReLU(negative_slope=0.01)
  (32): Linear(in_features=182, out_features=91, bias=True)
  (33): ReLU()
  (34): Linear(in_features=91, out_features=154, bias=True)
  (35): Tanh()
  (36): Linear(in_features=154, out_features=1, bias=True)
  (37): ReLU()
)LEARNING RATE : 2.677096388362465e-06	EPOCHS : 100
SCORE : 0.99876
MEAN ACCURACY : 0.9987600000000002
MEAN PRECISION : 0.9987600000000002
BEST ACCURACY : 0.99876
WORST ACCURACY  : 0.99876
BEST PRECISION  : 0.99876
WORST PRECISION : 0.99876


	MODEL
Sequential(
  (0): Linear(in_features=30, out_features=165, bias=True)
  (1): Tanh()
  (2): Linear(in_features=165, out_features=199, bias=True)
  (3): Tanh()
  (4): Linear(in_features=199, out_features=102, bias=True)
  (5): Sigmoid()
  (6): Linear(in_features=102, out_features=197, bias=True)
  (7): ReLU()
  (8): Linear(in_features=197, out_features=6, bias=True)
  (9): LeakyReLU(negative_slope=0.01)
  (10): Linear(in_features=6, out_features=158, bias=True)
  (11): LeakyReLU(negative_slope=0.01)
  (12): Linear(in_features=158, out_features=106, bias=True)
  (13): Tanh()
  (14): Linear(in_features=106, out_features=102, bias=True)
  (15): ReLU()
  (16): Linear(in_features=102, out_features=12, bias=True)
  (17): Sigmoid()
  (18): Linear(in_features=12, out_features=78, bias=True)
  (19): ReLU()
  (20): Linear(in_features=78, out_features=187, bias=True)
  (21): ReLU()
  (22): Linear(in_features=187, out_features=1, bias=True)
  (23): Sigmoid()
)LEARNING RATE : 8.09404342972328e-06	EPOCHS : 100
SCORE : 0.6330026666666667
MEAN ACCURACY : 0.8990080000000001
MEAN PRECISION : 0.8990080000000001
BEST ACCURACY : 0.99876
WORST ACCURACY  : 0.00124
BEST PRECISION  : 0.99876
WORST PRECISION : 0.00124


	MODEL
Sequential(
  (0): Linear(in_features=30, out_features=102, bias=True)
  (1): Sigmoid()
  (2): Linear(in_features=102, out_features=199, bias=True)
  (3): Tanh()
  (4): Linear(in_features=199, out_features=102, bias=True)
  (5): Sigmoid()
  (6): Linear(in_features=102, out_features=197, bias=True)
  (7): ReLU()
  (8): Linear(in_features=197, out_features=6, bias=True)
  (9): LeakyReLU(negative_slope=0.01)
  (10): Linear(in_features=6, out_features=158, bias=True)
  (11): LeakyReLU(negative_slope=0.01)
  (12): Linear(in_features=158, out_features=106, bias=True)
  (13): Tanh()
  (14): Linear(in_features=106, out_features=11, bias=True)
  (15): Sigmoid()
  (16): Linear(in_features=11, out_features=158, bias=True)
  (17): Tanh()
  (18): Linear(in_features=158, out_features=173, bias=True)
  (19): ReLU()
  (20): Linear(in_features=173, out_features=187, bias=True)
  (21): ReLU()
  (22): Linear(in_features=187, out_features=1, bias=True)
  (23): Sigmoid()
)LEARNING RATE : 2.677096388362465e-06	EPOCHS : 100
SCORE : 0.99876
MEAN ACCURACY : 0.9987600000000002
MEAN PRECISION : 0.9987600000000002
BEST ACCURACY : 0.99876
WORST ACCURACY  : 0.99876
BEST PRECISION  : 0.99876
WORST PRECISION : 0.99876


	MODEL
Sequential(
  (0): Linear(in_features=30, out_features=165, bias=True)
  (1): Tanh()
  (2): Linear(in_features=165, out_features=199, bias=True)
  (3): Tanh()
  (4): Linear(in_features=199, out_features=102, bias=True)
  (5): Sigmoid()
  (6): Linear(in_features=102, out_features=197, bias=True)
  (7): ReLU()
  (8): Linear(in_features=197, out_features=6, bias=True)
  (9): LeakyReLU(negative_slope=0.01)
  (10): Linear(in_features=6, out_features=158, bias=True)
  (11): LeakyReLU(negative_slope=0.01)
  (12): Linear(in_features=158, out_features=106, bias=True)
  (13): Tanh()
  (14): Linear(in_features=106, out_features=102, bias=True)
  (15): ReLU()
  (16): Linear(in_features=102, out_features=12, bias=True)
  (17): Sigmoid()
  (18): Linear(in_features=12, out_features=78, bias=True)
  (19): ReLU()
  (20): Linear(in_features=78, out_features=187, bias=True)
  (21): ReLU()
  (22): Linear(in_features=187, out_features=1, bias=True)
  (23): Sigmoid()
)LEARNING RATE : 8.09404342972328e-06	EPOCHS : 100
SCORE : 0.6440862222222223
MEAN ACCURACY : 0.9322586666666669
MEAN PRECISION : 0.9322586666666669
BEST ACCURACY : 0.99876
WORST ACCURACY  : 0.00124
BEST PRECISION  : 0.99876
WORST PRECISION : 0.00124


	MODEL
Sequential(
  (0): Linear(in_features=30, out_features=165, bias=True)
  (1): Tanh()
  (2): Linear(in_features=165, out_features=199, bias=True)
  (3): Tanh()
  (4): Linear(in_features=199, out_features=102, bias=True)
  (5): Sigmoid()
  (6): Linear(in_features=102, out_features=197, bias=True)
  (7): ReLU()
  (8): Linear(in_features=197, out_features=6, bias=True)
  (9): LeakyReLU(negative_slope=0.01)
  (10): Linear(in_features=6, out_features=158, bias=True)
  (11): LeakyReLU(negative_slope=0.01)
  (12): Linear(in_features=158, out_features=106, bias=True)
  (13): Tanh()
  (14): Linear(in_features=106, out_features=11, bias=True)
  (15): Sigmoid()
  (16): Linear(in_features=11, out_features=12, bias=True)
  (17): Sigmoid()
  (18): Linear(in_features=12, out_features=78, bias=True)
  (19): ReLU()
  (20): Linear(in_features=78, out_features=187, bias=True)
  (21): ReLU()
  (22): Linear(in_features=187, out_features=1, bias=True)
  (23): Sigmoid()
)LEARNING RATE : 2.677096388362465e-06	EPOCHS : 100
SCORE : 0.35591377777777783
MEAN ACCURACY : 0.06774133333333333
MEAN PRECISION : 0.06774133333333333
BEST ACCURACY : 0.99876
WORST ACCURACY  : 0.00124
BEST PRECISION  : 0.99876
WORST PRECISION : 0.00124


	MODEL
Sequential(
  (0): Linear(in_features=30, out_features=102, bias=True)
  (1): Sigmoid()
  (2): Linear(in_features=102, out_features=199, bias=True)
  (3): Tanh()
  (4): Linear(in_features=199, out_features=102, bias=True)
  (5): Sigmoid()
  (6): Linear(in_features=102, out_features=197, bias=True)
  (7): ReLU()
  (8): Linear(in_features=197, out_features=6, bias=True)
  (9): LeakyReLU(negative_slope=0.01)
  (10): Linear(in_features=6, out_features=158, bias=True)
  (11): LeakyReLU(negative_slope=0.01)
  (12): Linear(in_features=158, out_features=106, bias=True)
  (13): Tanh()
  (14): Linear(in_features=106, out_features=102, bias=True)
  (15): ReLU()
  (16): Linear(in_features=102, out_features=12, bias=True)
  (17): Sigmoid()
  (18): Linear(in_features=12, out_features=78, bias=True)
  (19): ReLU()
  (20): Linear(in_features=78, out_features=187, bias=True)
  (21): ReLU()
  (22): Linear(in_features=187, out_features=1, bias=True)
  (23): Sigmoid()
)LEARNING RATE : 8.09404342972328e-06	EPOCHS : 100
SCORE : 0.99876
MEAN ACCURACY : 0.9987600000000002
MEAN PRECISION : 0.9987600000000002
BEST ACCURACY : 0.99876
WORST ACCURACY  : 0.99876
BEST PRECISION  : 0.99876
WORST PRECISION : 0.99876


	MODEL
Sequential(
  (0): Linear(in_features=30, out_features=165, bias=True)
  (1): Tanh()
  (2): Linear(in_features=165, out_features=199, bias=True)
  (3): Tanh()
  (4): Linear(in_features=199, out_features=102, bias=True)
  (5): Sigmoid()
  (6): Linear(in_features=102, out_features=197, bias=True)
  (7): ReLU()
  (8): Linear(in_features=197, out_features=41, bias=True)
  (9): Tanh()
  (10): Linear(in_features=41, out_features=158, bias=True)
  (11): LeakyReLU(negative_slope=0.01)
  (12): Linear(in_features=158, out_features=106, bias=True)
  (13): Tanh()
  (14): Linear(in_features=106, out_features=11, bias=True)
  (15): Sigmoid()
  (16): Linear(in_features=11, out_features=158, bias=True)
  (17): Tanh()
  (18): Linear(in_features=158, out_features=78, bias=True)
  (19): ReLU()
  (20): Linear(in_features=78, out_features=187, bias=True)
  (21): ReLU()
  (22): Linear(in_features=187, out_features=152, bias=True)
  (23): Sigmoid()
  (24): Linear(in_features=152, out_features=86, bias=True)
  (25): ReLU()
  (26): Linear(in_features=86, out_features=66, bias=True)
  (27): Tanh()
  (28): Linear(in_features=66, out_features=163, bias=True)
  (29): ReLU()
  (30): Linear(in_features=163, out_features=182, bias=True)
  (31): LeakyReLU(negative_slope=0.01)
  (32): Linear(in_features=182, out_features=91, bias=True)
  (33): ReLU()
  (34): Linear(in_features=91, out_features=154, bias=True)
  (35): Tanh()
  (36): Linear(in_features=154, out_features=1, bias=True)
  (37): ReLU()
)LEARNING RATE : 2.677096388362465e-06	EPOCHS : 100
SCORE : 0.99876
MEAN ACCURACY : 0.9987600000000002
MEAN PRECISION : 0.9987600000000002
BEST ACCURACY : 0.99876
WORST ACCURACY  : 0.99876
BEST PRECISION  : 0.99876
WORST PRECISION : 0.99876


	MODEL
Sequential(
  (0): Linear(in_features=30, out_features=58, bias=True)
  (1): Tanh()
  (2): Linear(in_features=58, out_features=199, bias=True)
  (3): Sigmoid()
  (4): Linear(in_features=199, out_features=86, bias=True)
  (5): Sigmoid()
  (6): Linear(in_features=86, out_features=197, bias=True)
  (7): ReLU()
  (8): Linear(in_features=197, out_features=6, bias=True)
  (9): Tanh()
  (10): Linear(in_features=6, out_features=28, bias=True)
  (11): LeakyReLU(negative_slope=0.01)
  (12): Linear(in_features=28, out_features=106, bias=True)
  (13): Tanh()
  (14): Linear(in_features=106, out_features=182, bias=True)
  (15): LeakyReLU(negative_slope=0.01)
  (16): Linear(in_features=182, out_features=12, bias=True)
  (17): Sigmoid()
  (18): Linear(in_features=12, out_features=158, bias=True)
  (19): ReLU()
  (20): Linear(in_features=158, out_features=187, bias=True)
  (21): LeakyReLU(negative_slope=0.01)
  (22): Linear(in_features=187, out_features=1, bias=True)
  (23): Sigmoid()
)LEARNING RATE : 8.09404342972328e-06	EPOCHS : 100
SCORE : 0.99876
MEAN ACCURACY : 0.9987600000000002
MEAN PRECISION : 0.9987600000000002
BEST ACCURACY : 0.99876
WORST ACCURACY  : 0.99876
BEST PRECISION  : 0.99876
WORST PRECISION : 0.99876


	MODEL
Sequential(
  (0): Linear(in_features=30, out_features=102, bias=True)
  (1): Sigmoid()
  (2): Linear(in_features=102, out_features=35, bias=True)
  (3): LeakyReLU(negative_slope=0.01)
  (4): Linear(in_features=35, out_features=86, bias=True)
  (5): Sigmoid()
  (6): Linear(in_features=86, out_features=197, bias=True)
  (7): ReLU()
  (8): Linear(in_features=197, out_features=41, bias=True)
  (9): Tanh()
  (10): Linear(in_features=41, out_features=158, bias=True)
  (11): LeakyReLU(negative_slope=0.01)
  (12): Linear(in_features=158, out_features=106, bias=True)
  (13): Tanh()
  (14): Linear(in_features=106, out_features=11, bias=True)
  (15): Sigmoid()
  (16): Linear(in_features=11, out_features=158, bias=True)
  (17): Tanh()
  (18): Linear(in_features=158, out_features=173, bias=True)
  (19): ReLU()
  (20): Linear(in_features=173, out_features=187, bias=True)
  (21): ReLU()
  (22): Linear(in_features=187, out_features=152, bias=True)
  (23): Sigmoid()
  (24): Linear(in_features=152, out_features=175, bias=True)
  (25): ReLU()
  (26): Linear(in_features=175, out_features=66, bias=True)
  (27): Tanh()
  (28): Linear(in_features=66, out_features=184, bias=True)
  (29): LeakyReLU(negative_slope=0.01)
  (30): Linear(in_features=184, out_features=182, bias=True)
  (31): LeakyReLU(negative_slope=0.01)
  (32): Linear(in_features=182, out_features=91, bias=True)
  (33): ReLU()
  (34): Linear(in_features=91, out_features=154, bias=True)
  (35): Tanh()
  (36): Linear(in_features=154, out_features=1, bias=True)
  (37): ReLU()
)LEARNING RATE : 2.677096388362465e-06	EPOCHS : 100
SCORE : 0.9987599999999999
MEAN ACCURACY : 0.9987599999999998
MEAN PRECISION : 0.9987599999999998
BEST ACCURACY : 0.99876
WORST ACCURACY  : 0.99876
BEST PRECISION  : 0.99876
WORST PRECISION : 0.99876


	MODEL
Sequential(
  (0): Linear(in_features=30, out_features=165, bias=True)
  (1): Tanh()
  (2): Linear(in_features=165, out_features=199, bias=True)
  (3): Tanh()
  (4): Linear(in_features=199, out_features=102, bias=True)
  (5): Sigmoid()
  (6): Linear(in_features=102, out_features=197, bias=True)
  (7): ReLU()
  (8): Linear(in_features=197, out_features=6, bias=True)
  (9): LeakyReLU(negative_slope=0.01)
  (10): Linear(in_features=6, out_features=158, bias=True)
  (11): LeakyReLU(negative_slope=0.01)
  (12): Linear(in_features=158, out_features=106, bias=True)
  (13): Tanh()
  (14): Linear(in_features=106, out_features=11, bias=True)
  (15): Sigmoid()
  (16): Linear(in_features=11, out_features=158, bias=True)
  (17): Tanh()
  (18): Linear(in_features=158, out_features=78, bias=True)
  (19): ReLU()
  (20): Linear(in_features=78, out_features=187, bias=True)
  (21): ReLU()
  (22): Linear(in_features=187, out_features=152, bias=True)
  (23): Sigmoid()
  (24): Linear(in_features=152, out_features=86, bias=True)
  (25): ReLU()
  (26): Linear(in_features=86, out_features=49, bias=True)
  (27): ReLU()
  (28): Linear(in_features=49, out_features=163, bias=True)
  (29): ReLU()
  (30): Linear(in_features=163, out_features=47, bias=True)
  (31): ReLU()
  (32): Linear(in_features=47, out_features=39, bias=True)
  (33): ReLU()
  (34): Linear(in_features=39, out_features=154, bias=True)
  (35): Tanh()
  (36): Linear(in_features=154, out_features=1, bias=True)
  (37): ReLU()
)LEARNING RATE : 8.09404342972328e-06	EPOCHS : 100
SCORE : 0.9987599999999999
MEAN ACCURACY : 0.9987599999999998
MEAN PRECISION : 0.9987599999999998
BEST ACCURACY : 0.99876
WORST ACCURACY  : 0.99876
BEST PRECISION  : 0.99876
WORST PRECISION : 0.99876


	MODEL
Sequential(
  (0): Linear(in_features=30, out_features=165, bias=True)
  (1): Tanh()
  (2): Linear(in_features=165, out_features=199, bias=True)
  (3): Tanh()
  (4): Linear(in_features=199, out_features=102, bias=True)
  (5): Sigmoid()
  (6): Linear(in_features=102, out_features=197, bias=True)
  (7): ReLU()
  (8): Linear(in_features=197, out_features=6, bias=True)
  (9): LeakyReLU(negative_slope=0.01)
  (10): Linear(in_features=6, out_features=158, bias=True)
  (11): LeakyReLU(negative_slope=0.01)
  (12): Linear(in_features=158, out_features=106, bias=True)
  (13): Tanh()
  (14): Linear(in_features=106, out_features=102, bias=True)
  (15): ReLU()
  (16): Linear(in_features=102, out_features=12, bias=True)
  (17): Sigmoid()
  (18): Linear(in_features=12, out_features=78, bias=True)
  (19): ReLU()
  (20): Linear(in_features=78, out_features=187, bias=True)
  (21): ReLU()
  (22): Linear(in_features=187, out_features=1, bias=True)
  (23): Sigmoid()
)LEARNING RATE : 8.09404342972328e-06	EPOCHS : 100
SCORE : 0.9987599999999999
MEAN ACCURACY : 0.9987599999999998
MEAN PRECISION : 0.9987599999999998
BEST ACCURACY : 0.99876
WORST ACCURACY  : 0.99876
BEST PRECISION  : 0.99876
WORST PRECISION : 0.99876


	MODEL
Sequential(
  (0): Linear(in_features=30, out_features=165, bias=True)
  (1): Tanh()
  (2): Linear(in_features=165, out_features=199, bias=True)
  (3): Tanh()
  (4): Linear(in_features=199, out_features=102, bias=True)
  (5): Sigmoid()
  (6): Linear(in_features=102, out_features=197, bias=True)
  (7): ReLU()
  (8): Linear(in_features=197, out_features=6, bias=True)
  (9): LeakyReLU(negative_slope=0.01)
  (10): Linear(in_features=6, out_features=158, bias=True)
  (11): LeakyReLU(negative_slope=0.01)
  (12): Linear(in_features=158, out_features=106, bias=True)
  (13): Tanh()
  (14): Linear(in_features=106, out_features=11, bias=True)
  (15): Sigmoid()
  (16): Linear(in_features=11, out_features=158, bias=True)
  (17): Tanh()
  (18): Linear(in_features=158, out_features=78, bias=True)
  (19): ReLU()
  (20): Linear(in_features=78, out_features=187, bias=True)
  (21): ReLU()
  (22): Linear(in_features=187, out_features=152, bias=True)
  (23): Sigmoid()
  (24): Linear(in_features=152, out_features=175, bias=True)
  (25): ReLU()
  (26): Linear(in_features=175, out_features=66, bias=True)
  (27): Tanh()
  (28): Linear(in_features=66, out_features=184, bias=True)
  (29): LeakyReLU(negative_slope=0.01)
  (30): Linear(in_features=184, out_features=182, bias=True)
  (31): LeakyReLU(negative_slope=0.01)
  (32): Linear(in_features=182, out_features=91, bias=True)
  (33): ReLU()
  (34): Linear(in_features=91, out_features=154, bias=True)
  (35): Tanh()
  (36): Linear(in_features=154, out_features=1, bias=True)
  (37): ReLU()
)LEARNING RATE : 2.677096388362465e-06	EPOCHS : 100
SCORE : 0.9987599999999999
MEAN ACCURACY : 0.9987599999999998
MEAN PRECISION : 0.9987599999999998
BEST ACCURACY : 0.99876
WORST ACCURACY  : 0.99876
BEST PRECISION  : 0.99876
WORST PRECISION : 0.99876


	MODEL
Sequential(
  (0): Linear(in_features=30, out_features=165, bias=True)
  (1): Tanh()
  (2): Linear(in_features=165, out_features=199, bias=True)
  (3): Tanh()
  (4): Linear(in_features=199, out_features=102, bias=True)
  (5): Sigmoid()
  (6): Linear(in_features=102, out_features=197, bias=True)
  (7): ReLU()
  (8): Linear(in_features=197, out_features=6, bias=True)
  (9): LeakyReLU(negative_slope=0.01)
  (10): Linear(in_features=6, out_features=158, bias=True)
  (11): LeakyReLU(negative_slope=0.01)
  (12): Linear(in_features=158, out_features=106, bias=True)
  (13): Tanh()
  (14): Linear(in_features=106, out_features=102, bias=True)
  (15): ReLU()
  (16): Linear(in_features=102, out_features=12, bias=True)
  (17): Sigmoid()
  (18): Linear(in_features=12, out_features=78, bias=True)
  (19): ReLU()
  (20): Linear(in_features=78, out_features=187, bias=True)
  (21): ReLU()
  (22): Linear(in_features=187, out_features=1, bias=True)
  (23): Sigmoid()
)LEARNING RATE : 8.09404342972328e-06	EPOCHS : 100
SCORE : 0.649628
MEAN ACCURACY : 0.9488839999999997
MEAN PRECISION : 0.9488839999999997
BEST ACCURACY : 0.99876
WORST ACCURACY  : 0.00124
BEST PRECISION  : 0.99876
WORST PRECISION : 0.00124


	MODEL
Sequential(
  (0): Linear(in_features=30, out_features=102, bias=True)
  (1): Sigmoid()
  (2): Linear(in_features=102, out_features=199, bias=True)
  (3): Tanh()
  (4): Linear(in_features=199, out_features=102, bias=True)
  (5): Sigmoid()
  (6): Linear(in_features=102, out_features=197, bias=True)
  (7): ReLU()
  (8): Linear(in_features=197, out_features=6, bias=True)
  (9): LeakyReLU(negative_slope=0.01)
  (10): Linear(in_features=6, out_features=158, bias=True)
  (11): LeakyReLU(negative_slope=0.01)
  (12): Linear(in_features=158, out_features=106, bias=True)
  (13): Tanh()
  (14): Linear(in_features=106, out_features=11, bias=True)
  (15): Sigmoid()
  (16): Linear(in_features=11, out_features=158, bias=True)
  (17): Tanh()
  (18): Linear(in_features=158, out_features=173, bias=True)
  (19): ReLU()
  (20): Linear(in_features=173, out_features=187, bias=True)
  (21): ReLU()
  (22): Linear(in_features=187, out_features=1, bias=True)
  (23): Sigmoid()
)LEARNING RATE : 2.677096388362465e-06	EPOCHS : 100
SCORE : 0.9987599999999999
MEAN ACCURACY : 0.9987599999999998
MEAN PRECISION : 0.9987599999999998
BEST ACCURACY : 0.99876
WORST ACCURACY  : 0.99876
BEST PRECISION  : 0.99876
WORST PRECISION : 0.99876


	MODEL
Sequential(
  (0): Linear(in_features=30, out_features=165, bias=True)
  (1): Tanh()
  (2): Linear(in_features=165, out_features=199, bias=True)
  (3): Tanh()
  (4): Linear(in_features=199, out_features=102, bias=True)
  (5): Sigmoid()
  (6): Linear(in_features=102, out_features=197, bias=True)
  (7): ReLU()
  (8): Linear(in_features=197, out_features=6, bias=True)
  (9): LeakyReLU(negative_slope=0.01)
  (10): Linear(in_features=6, out_features=158, bias=True)
  (11): LeakyReLU(negative_slope=0.01)
  (12): Linear(in_features=158, out_features=106, bias=True)
  (13): Tanh()
  (14): Linear(in_features=106, out_features=102, bias=True)
  (15): ReLU()
  (16): Linear(in_features=102, out_features=12, bias=True)
  (17): Sigmoid()
  (18): Linear(in_features=12, out_features=78, bias=True)
  (19): ReLU()
  (20): Linear(in_features=78, out_features=187, bias=True)
  (21): ReLU()
  (22): Linear(in_features=187, out_features=1, bias=True)
  (23): Sigmoid()
)LEARNING RATE : 8.09404342972328e-06	EPOCHS : 100
SCORE : 0.6551697777777777
MEAN ACCURACY : 0.9655093333333331
MEAN PRECISION : 0.9655093333333331
BEST ACCURACY : 0.99876
WORST ACCURACY  : 0.00124
BEST PRECISION  : 0.99876
WORST PRECISION : 0.00124


	MODEL
Sequential(
  (0): Linear(in_features=30, out_features=165, bias=True)
  (1): Tanh()
  (2): Linear(in_features=165, out_features=199, bias=True)
  (3): Tanh()
  (4): Linear(in_features=199, out_features=102, bias=True)
  (5): Sigmoid()
  (6): Linear(in_features=102, out_features=197, bias=True)
  (7): ReLU()
  (8): Linear(in_features=197, out_features=6, bias=True)
  (9): LeakyReLU(negative_slope=0.01)
  (10): Linear(in_features=6, out_features=158, bias=True)
  (11): LeakyReLU(negative_slope=0.01)
  (12): Linear(in_features=158, out_features=106, bias=True)
  (13): Tanh()
  (14): Linear(in_features=106, out_features=11, bias=True)
  (15): Sigmoid()
  (16): Linear(in_features=11, out_features=12, bias=True)
  (17): Sigmoid()
  (18): Linear(in_features=12, out_features=78, bias=True)
  (19): ReLU()
  (20): Linear(in_features=78, out_features=187, bias=True)
  (21): ReLU()
  (22): Linear(in_features=187, out_features=1, bias=True)
  (23): Sigmoid()
)LEARNING RATE : 2.677096388362465e-06	EPOCHS : 100
SCORE : 0.5110835555555556
MEAN ACCURACY : 0.5332506666666668
MEAN PRECISION : 0.5332506666666668
BEST ACCURACY : 0.99876
WORST ACCURACY  : 0.00124
BEST PRECISION  : 0.99876
WORST PRECISION : 0.00124


	MODEL
Sequential(
  (0): Linear(in_features=30, out_features=102, bias=True)
  (1): Sigmoid()
  (2): Linear(in_features=102, out_features=199, bias=True)
  (3): Tanh()
  (4): Linear(in_features=199, out_features=102, bias=True)
  (5): Sigmoid()
  (6): Linear(in_features=102, out_features=197, bias=True)
  (7): ReLU()
  (8): Linear(in_features=197, out_features=6, bias=True)
  (9): LeakyReLU(negative_slope=0.01)
  (10): Linear(in_features=6, out_features=158, bias=True)
  (11): LeakyReLU(negative_slope=0.01)
  (12): Linear(in_features=158, out_features=106, bias=True)
  (13): Tanh()
  (14): Linear(in_features=106, out_features=102, bias=True)
  (15): ReLU()
  (16): Linear(in_features=102, out_features=12, bias=True)
  (17): Sigmoid()
  (18): Linear(in_features=12, out_features=78, bias=True)
  (19): ReLU()
  (20): Linear(in_features=78, out_features=187, bias=True)
  (21): ReLU()
  (22): Linear(in_features=187, out_features=1, bias=True)
  (23): Sigmoid()
)LEARNING RATE : 8.09404342972328e-06	EPOCHS : 100
SCORE : 0.9987599999999999
MEAN ACCURACY : 0.9987599999999998
MEAN PRECISION : 0.9987599999999998
BEST ACCURACY : 0.99876
WORST ACCURACY  : 0.99876
BEST PRECISION  : 0.99876
WORST PRECISION : 0.99876


	MODEL
Sequential(
  (0): Linear(in_features=30, out_features=165, bias=True)
  (1): Tanh()
  (2): Linear(in_features=165, out_features=199, bias=True)
  (3): Tanh()
  (4): Linear(in_features=199, out_features=102, bias=True)
  (5): Sigmoid()
  (6): Linear(in_features=102, out_features=197, bias=True)
  (7): ReLU()
  (8): Linear(in_features=197, out_features=41, bias=True)
  (9): Tanh()
  (10): Linear(in_features=41, out_features=158, bias=True)
  (11): LeakyReLU(negative_slope=0.01)
  (12): Linear(in_features=158, out_features=106, bias=True)
  (13): Tanh()
  (14): Linear(in_features=106, out_features=11, bias=True)
  (15): Sigmoid()
  (16): Linear(in_features=11, out_features=158, bias=True)
  (17): Tanh()
  (18): Linear(in_features=158, out_features=78, bias=True)
  (19): ReLU()
  (20): Linear(in_features=78, out_features=187, bias=True)
  (21): ReLU()
  (22): Linear(in_features=187, out_features=152, bias=True)
  (23): Sigmoid()
  (24): Linear(in_features=152, out_features=86, bias=True)
  (25): ReLU()
  (26): Linear(in_features=86, out_features=66, bias=True)
  (27): Tanh()
  (28): Linear(in_features=66, out_features=163, bias=True)
  (29): ReLU()
  (30): Linear(in_features=163, out_features=182, bias=True)
  (31): LeakyReLU(negative_slope=0.01)
  (32): Linear(in_features=182, out_features=91, bias=True)
  (33): ReLU()
  (34): Linear(in_features=91, out_features=154, bias=True)
  (35): Tanh()
  (36): Linear(in_features=154, out_features=1, bias=True)
  (37): ReLU()
)LEARNING RATE : 2.677096388362465e-06	EPOCHS : 100
SCORE : 0.9987599999999999
MEAN ACCURACY : 0.9987599999999998
MEAN PRECISION : 0.9987599999999998
BEST ACCURACY : 0.99876
WORST ACCURACY  : 0.99876
BEST PRECISION  : 0.99876
WORST PRECISION : 0.99876


	MODEL
Sequential(
  (0): Linear(in_features=30, out_features=102, bias=True)
  (1): LeakyReLU(negative_slope=0.01)
  (2): Linear(in_features=102, out_features=35, bias=True)
  (3): LeakyReLU(negative_slope=0.01)
  (4): Linear(in_features=35, out_features=86, bias=True)
  (5): Sigmoid()
  (6): Linear(in_features=86, out_features=197, bias=True)
  (7): ReLU()
  (8): Linear(in_features=197, out_features=41, bias=True)
  (9): Tanh()
  (10): Linear(in_features=41, out_features=158, bias=True)
  (11): LeakyReLU(negative_slope=0.01)
  (12): Linear(in_features=158, out_features=106, bias=True)
  (13): Tanh()
  (14): Linear(in_features=106, out_features=11, bias=True)
  (15): Sigmoid()
  (16): Linear(in_features=11, out_features=53, bias=True)
  (17): Tanh()
  (18): Linear(in_features=53, out_features=173, bias=True)
  (19): ReLU()
  (20): Linear(in_features=173, out_features=187, bias=True)
  (21): ReLU()
  (22): Linear(in_features=187, out_features=152, bias=True)
  (23): Sigmoid()
  (24): Linear(in_features=152, out_features=175, bias=True)
  (25): ReLU()
  (26): Linear(in_features=175, out_features=66, bias=True)
  (27): ReLU()
  (28): Linear(in_features=66, out_features=184, bias=True)
  (29): LeakyReLU(negative_slope=0.01)
  (30): Linear(in_features=184, out_features=182, bias=True)
  (31): LeakyReLU(negative_slope=0.01)
  (32): Linear(in_features=182, out_features=91, bias=True)
  (33): ReLU()
  (34): Linear(in_features=91, out_features=154, bias=True)
  (35): Tanh()
  (36): Linear(in_features=154, out_features=1, bias=True)
  (37): ReLU()
)LEARNING RATE : 2.677096388362465e-06	EPOCHS : 100
SCORE : 0.99876
MEAN ACCURACY : 0.9987600000000003
MEAN PRECISION : 0.9987600000000003
BEST ACCURACY : 0.99876
WORST ACCURACY  : 0.99876
BEST PRECISION  : 0.99876
WORST PRECISION : 0.99876


	MODEL
Sequential(
  (0): Linear(in_features=30, out_features=58, bias=True)
  (1): Tanh()
  (2): Linear(in_features=58, out_features=199, bias=True)
  (3): Sigmoid()
  (4): Linear(in_features=199, out_features=86, bias=True)
  (5): Sigmoid()
  (6): Linear(in_features=86, out_features=197, bias=True)
  (7): ReLU()
  (8): Linear(in_features=197, out_features=6, bias=True)
  (9): Tanh()
  (10): Linear(in_features=6, out_features=28, bias=True)
  (11): LeakyReLU(negative_slope=0.01)
  (12): Linear(in_features=28, out_features=106, bias=True)
  (13): Tanh()
  (14): Linear(in_features=106, out_features=182, bias=True)
  (15): LeakyReLU(negative_slope=0.01)
  (16): Linear(in_features=182, out_features=12, bias=True)
  (17): Sigmoid()
  (18): Linear(in_features=12, out_features=158, bias=True)
  (19): ReLU()
  (20): Linear(in_features=158, out_features=187, bias=True)
  (21): LeakyReLU(negative_slope=0.01)
  (22): Linear(in_features=187, out_features=1, bias=True)
  (23): Sigmoid()
)LEARNING RATE : 8.09404342972328e-06	EPOCHS : 100
SCORE : 0.99876
MEAN ACCURACY : 0.9987600000000003
MEAN PRECISION : 0.9987600000000003
BEST ACCURACY : 0.99876
WORST ACCURACY  : 0.99876
BEST PRECISION  : 0.99876
WORST PRECISION : 0.99876


	MODEL
Sequential(
  (0): Linear(in_features=30, out_features=102, bias=True)
  (1): Sigmoid()
  (2): Linear(in_features=102, out_features=35, bias=True)
  (3): LeakyReLU(negative_slope=0.01)
  (4): Linear(in_features=35, out_features=86, bias=True)
  (5): Sigmoid()
  (6): Linear(in_features=86, out_features=197, bias=True)
  (7): ReLU()
  (8): Linear(in_features=197, out_features=41, bias=True)
  (9): Sigmoid()
  (10): Linear(in_features=41, out_features=158, bias=True)
  (11): ReLU()
  (12): Linear(in_features=158, out_features=106, bias=True)
  (13): Tanh()
  (14): Linear(in_features=106, out_features=61, bias=True)
  (15): Sigmoid()
  (16): Linear(in_features=61, out_features=158, bias=True)
  (17): Tanh()
  (18): Linear(in_features=158, out_features=78, bias=True)
  (19): ReLU()
  (20): Linear(in_features=78, out_features=187, bias=True)
  (21): ReLU()
  (22): Linear(in_features=187, out_features=152, bias=True)
  (23): Sigmoid()
  (24): Linear(in_features=152, out_features=175, bias=True)
  (25): ReLU()
  (26): Linear(in_features=175, out_features=66, bias=True)
  (27): Tanh()
  (28): Linear(in_features=66, out_features=109, bias=True)
  (29): ReLU()
  (30): Linear(in_features=109, out_features=182, bias=True)
  (31): LeakyReLU(negative_slope=0.01)
  (32): Linear(in_features=182, out_features=91, bias=True)
  (33): ReLU()
  (34): Linear(in_features=91, out_features=154, bias=True)
  (35): Tanh()
  (36): Linear(in_features=154, out_features=1, bias=True)
  (37): ReLU()
)LEARNING RATE : 2.677096388362465e-06	EPOCHS : 100
SCORE : 0.99876
MEAN ACCURACY : 0.9987600000000002
MEAN PRECISION : 0.9987600000000002
BEST ACCURACY : 0.99876
WORST ACCURACY  : 0.99876
BEST PRECISION  : 0.99876
WORST PRECISION : 0.99876


	MODEL
Sequential(
  (0): Linear(in_features=30, out_features=165, bias=True)
  (1): ReLU()
  (2): Linear(in_features=165, out_features=199, bias=True)
  (3): Tanh()
  (4): Linear(in_features=199, out_features=176, bias=True)
  (5): LeakyReLU(negative_slope=0.01)
  (6): Linear(in_features=176, out_features=197, bias=True)
  (7): ReLU()
  (8): Linear(in_features=197, out_features=6, bias=True)
  (9): LeakyReLU(negative_slope=0.01)
  (10): Linear(in_features=6, out_features=158, bias=True)
  (11): ReLU()
  (12): Linear(in_features=158, out_features=106, bias=True)
  (13): Tanh()
  (14): Linear(in_features=106, out_features=61, bias=True)
  (15): Sigmoid()
  (16): Linear(in_features=61, out_features=12, bias=True)
  (17): Sigmoid()
  (18): Linear(in_features=12, out_features=78, bias=True)
  (19): ReLU()
  (20): Linear(in_features=78, out_features=187, bias=True)
  (21): ReLU()
  (22): Linear(in_features=187, out_features=1, bias=True)
  (23): Sigmoid()
)LEARNING RATE : 8.09404342972328e-06	EPOCHS : 100
SCORE : 0.99876
MEAN ACCURACY : 0.9987600000000002
MEAN PRECISION : 0.9987600000000002
BEST ACCURACY : 0.99876
WORST ACCURACY  : 0.99876
BEST PRECISION  : 0.99876
WORST PRECISION : 0.99876


	MODEL
Sequential(
  (0): Linear(in_features=30, out_features=165, bias=True)
  (1): ReLU()
  (2): Linear(in_features=165, out_features=199, bias=True)
  (3): Tanh()
  (4): Linear(in_features=199, out_features=176, bias=True)
  (5): LeakyReLU(negative_slope=0.01)
  (6): Linear(in_features=176, out_features=197, bias=True)
  (7): ReLU()
  (8): Linear(in_features=197, out_features=6, bias=True)
  (9): LeakyReLU(negative_slope=0.01)
  (10): Linear(in_features=6, out_features=158, bias=True)
  (11): ReLU()
  (12): Linear(in_features=158, out_features=106, bias=True)
  (13): Tanh()
  (14): Linear(in_features=106, out_features=61, bias=True)
  (15): Sigmoid()
  (16): Linear(in_features=61, out_features=12, bias=True)
  (17): Sigmoid()
  (18): Linear(in_features=12, out_features=78, bias=True)
  (19): ReLU()
  (20): Linear(in_features=78, out_features=187, bias=True)
  (21): ReLU()
  (22): Linear(in_features=187, out_features=1, bias=True)
  (23): Sigmoid()
)LEARNING RATE : 8.09404342972328e-06	EPOCHS : 100
SCORE : 0.99876
MEAN ACCURACY : 0.9987600000000002
MEAN PRECISION : 0.9987600000000002
BEST ACCURACY : 0.99876
WORST ACCURACY  : 0.99876
BEST PRECISION  : 0.99876
WORST PRECISION : 0.99876


	MODEL
Sequential(
  (0): Linear(in_features=30, out_features=165, bias=True)
  (1): ReLU()
  (2): Linear(in_features=165, out_features=35, bias=True)
  (3): LeakyReLU(negative_slope=0.01)
  (4): Linear(in_features=35, out_features=86, bias=True)
  (5): Sigmoid()
  (6): Linear(in_features=86, out_features=197, bias=True)
  (7): ReLU()
  (8): Linear(in_features=197, out_features=41, bias=True)
  (9): Sigmoid()
  (10): Linear(in_features=41, out_features=158, bias=True)
  (11): ReLU()
  (12): Linear(in_features=158, out_features=106, bias=True)
  (13): Tanh()
  (14): Linear(in_features=106, out_features=61, bias=True)
  (15): Sigmoid()
  (16): Linear(in_features=61, out_features=158, bias=True)
  (17): Tanh()
  (18): Linear(in_features=158, out_features=78, bias=True)
  (19): ReLU()
  (20): Linear(in_features=78, out_features=187, bias=True)
  (21): ReLU()
  (22): Linear(in_features=187, out_features=1, bias=True)
  (23): Sigmoid()
)LEARNING RATE : 8.09404342972328e-06	EPOCHS : 100
SCORE : 0.5997520000000001
MEAN ACCURACY : 0.7992560000000001
MEAN PRECISION : 0.7992560000000001
BEST ACCURACY : 0.99876
WORST ACCURACY  : 0.00124
BEST PRECISION  : 0.99876
WORST PRECISION : 0.00124


	MODEL
Sequential(
  (0): Linear(in_features=30, out_features=165, bias=True)
  (1): ReLU()
  (2): Linear(in_features=165, out_features=199, bias=True)
  (3): Tanh()
  (4): Linear(in_features=199, out_features=176, bias=True)
  (5): LeakyReLU(negative_slope=0.01)
  (6): Linear(in_features=176, out_features=197, bias=True)
  (7): ReLU()
  (8): Linear(in_features=197, out_features=6, bias=True)
  (9): LeakyReLU(negative_slope=0.01)
  (10): Linear(in_features=6, out_features=158, bias=True)
  (11): ReLU()
  (12): Linear(in_features=158, out_features=106, bias=True)
  (13): Tanh()
  (14): Linear(in_features=106, out_features=61, bias=True)
  (15): Sigmoid()
  (16): Linear(in_features=61, out_features=12, bias=True)
  (17): Sigmoid()
  (18): Linear(in_features=12, out_features=78, bias=True)
  (19): ReLU()
  (20): Linear(in_features=78, out_features=187, bias=True)
  (21): ReLU()
  (22): Linear(in_features=187, out_features=1, bias=True)
  (23): Sigmoid()
)LEARNING RATE : 8.09404342972328e-06	EPOCHS : 100
SCORE : 0.99876
MEAN ACCURACY : 0.9987600000000002
MEAN PRECISION : 0.9987600000000002
BEST ACCURACY : 0.99876
WORST ACCURACY  : 0.99876
BEST PRECISION  : 0.99876
WORST PRECISION : 0.99876


	MODEL
Sequential(
  (0): Linear(in_features=30, out_features=165, bias=True)
  (1): ReLU()
  (2): Linear(in_features=165, out_features=35, bias=True)
  (3): LeakyReLU(negative_slope=0.01)
  (4): Linear(in_features=35, out_features=86, bias=True)
  (5): Sigmoid()
  (6): Linear(in_features=86, out_features=197, bias=True)
  (7): ReLU()
  (8): Linear(in_features=197, out_features=41, bias=True)
  (9): Sigmoid()
  (10): Linear(in_features=41, out_features=158, bias=True)
  (11): ReLU()
  (12): Linear(in_features=158, out_features=106, bias=True)
  (13): Tanh()
  (14): Linear(in_features=106, out_features=61, bias=True)
  (15): Sigmoid()
  (16): Linear(in_features=61, out_features=12, bias=True)
  (17): Sigmoid()
  (18): Linear(in_features=12, out_features=78, bias=True)
  (19): ReLU()
  (20): Linear(in_features=78, out_features=187, bias=True)
  (21): ReLU()
  (22): Linear(in_features=187, out_features=1, bias=True)
  (23): Sigmoid()
)LEARNING RATE : 8.09404342972328e-06	EPOCHS : 100
SCORE : 0.99876
MEAN ACCURACY : 0.9987600000000002
MEAN PRECISION : 0.9987600000000002
BEST ACCURACY : 0.99876
WORST ACCURACY  : 0.99876
BEST PRECISION  : 0.99876
WORST PRECISION : 0.99876


	MODEL
Sequential(
  (0): Linear(in_features=30, out_features=165, bias=True)
  (1): ReLU()
  (2): Linear(in_features=165, out_features=199, bias=True)
  (3): Tanh()
  (4): Linear(in_features=199, out_features=176, bias=True)
  (5): LeakyReLU(negative_slope=0.01)
  (6): Linear(in_features=176, out_features=197, bias=True)
  (7): ReLU()
  (8): Linear(in_features=197, out_features=6, bias=True)
  (9): LeakyReLU(negative_slope=0.01)
  (10): Linear(in_features=6, out_features=158, bias=True)
  (11): LeakyReLU(negative_slope=0.01)
  (12): Linear(in_features=158, out_features=106, bias=True)
  (13): Tanh()
  (14): Linear(in_features=106, out_features=61, bias=True)
  (15): Sigmoid()
  (16): Linear(in_features=61, out_features=12, bias=True)
  (17): Sigmoid()
  (18): Linear(in_features=12, out_features=78, bias=True)
  (19): ReLU()
  (20): Linear(in_features=78, out_features=187, bias=True)
  (21): ReLU()
  (22): Linear(in_features=187, out_features=1, bias=True)
  (23): Sigmoid()
)LEARNING RATE : 8.09404342972328e-06	EPOCHS : 100
SCORE : 0.6108355555555557
MEAN ACCURACY : 0.8325066666666668
MEAN PRECISION : 0.8325066666666668
BEST ACCURACY : 0.99876
WORST ACCURACY  : 0.00124
BEST PRECISION  : 0.99876
WORST PRECISION : 0.00124


	MODEL
Sequential(
  (0): Linear(in_features=30, out_features=165, bias=True)
  (1): ReLU()
  (2): Linear(in_features=165, out_features=35, bias=True)
  (3): LeakyReLU(negative_slope=0.01)
  (4): Linear(in_features=35, out_features=86, bias=True)
  (5): Sigmoid()
  (6): Linear(in_features=86, out_features=197, bias=True)
  (7): ReLU()
  (8): Linear(in_features=197, out_features=41, bias=True)
  (9): Sigmoid()
  (10): Linear(in_features=41, out_features=158, bias=True)
  (11): ReLU()
  (12): Linear(in_features=158, out_features=106, bias=True)
  (13): Tanh()
  (14): Linear(in_features=106, out_features=61, bias=True)
  (15): Sigmoid()
  (16): Linear(in_features=61, out_features=158, bias=True)
  (17): Tanh()
  (18): Linear(in_features=158, out_features=78, bias=True)
  (19): ReLU()
  (20): Linear(in_features=78, out_features=187, bias=True)
  (21): ReLU()
  (22): Linear(in_features=187, out_features=152, bias=True)
  (23): Sigmoid()
  (24): Linear(in_features=152, out_features=175, bias=True)
  (25): ReLU()
  (26): Linear(in_features=175, out_features=127, bias=True)
  (27): ReLU()
  (28): Linear(in_features=127, out_features=105, bias=True)
  (29): ReLU()
  (30): Linear(in_features=105, out_features=102, bias=True)
  (31): ReLU()
  (32): Linear(in_features=102, out_features=86, bias=True)
  (33): ReLU()
  (34): Linear(in_features=86, out_features=76, bias=True)
  (35): ReLU()
  (36): Linear(in_features=76, out_features=1, bias=True)
  (37): ReLU()
)LEARNING RATE : 8.09404342972328e-06	EPOCHS : 100
SCORE : 0.99876
MEAN ACCURACY : 0.9987600000000002
MEAN PRECISION : 0.9987600000000002
BEST ACCURACY : 0.99876
WORST ACCURACY  : 0.99876
BEST PRECISION  : 0.99876
WORST PRECISION : 0.99876


	MODEL
Sequential(
  (0): Linear(in_features=30, out_features=165, bias=True)
  (1): ReLU()
  (2): Linear(in_features=165, out_features=199, bias=True)
  (3): Tanh()
  (4): Linear(in_features=199, out_features=176, bias=True)
  (5): LeakyReLU(negative_slope=0.01)
  (6): Linear(in_features=176, out_features=197, bias=True)
  (7): ReLU()
  (8): Linear(in_features=197, out_features=6, bias=True)
  (9): LeakyReLU(negative_slope=0.01)
  (10): Linear(in_features=6, out_features=158, bias=True)
  (11): LeakyReLU(negative_slope=0.01)
  (12): Linear(in_features=158, out_features=106, bias=True)
  (13): Tanh()
  (14): Linear(in_features=106, out_features=102, bias=True)
  (15): ReLU()
  (16): Linear(in_features=102, out_features=12, bias=True)
  (17): Sigmoid()
  (18): Linear(in_features=12, out_features=78, bias=True)
  (19): ReLU()
  (20): Linear(in_features=78, out_features=187, bias=True)
  (21): ReLU()
  (22): Linear(in_features=187, out_features=1, bias=True)
  (23): Sigmoid()
)LEARNING RATE : 8.09404342972328e-06	EPOCHS : 100
SCORE : 0.99876
MEAN ACCURACY : 0.9987600000000002
MEAN PRECISION : 0.9987600000000002
BEST ACCURACY : 0.99876
WORST ACCURACY  : 0.99876
BEST PRECISION  : 0.99876
WORST PRECISION : 0.99876


	MODEL
Sequential(
  (0): Linear(in_features=30, out_features=165, bias=True)
  (1): ReLU()
  (2): Linear(in_features=165, out_features=35, bias=True)
  (3): LeakyReLU(negative_slope=0.01)
  (4): Linear(in_features=35, out_features=86, bias=True)
  (5): Sigmoid()
  (6): Linear(in_features=86, out_features=197, bias=True)
  (7): ReLU()
  (8): Linear(in_features=197, out_features=41, bias=True)
  (9): Sigmoid()
  (10): Linear(in_features=41, out_features=158, bias=True)
  (11): ReLU()
  (12): Linear(in_features=158, out_features=106, bias=True)
  (13): Tanh()
  (14): Linear(in_features=106, out_features=61, bias=True)
  (15): Sigmoid()
  (16): Linear(in_features=61, out_features=12, bias=True)
  (17): Sigmoid()
  (18): Linear(in_features=12, out_features=78, bias=True)
  (19): ReLU()
  (20): Linear(in_features=78, out_features=187, bias=True)
  (21): ReLU()
  (22): Linear(in_features=187, out_features=1, bias=True)
  (23): Sigmoid()
)LEARNING RATE : 2.677096388362465e-06	EPOCHS : 100
SCORE : 0.99876
MEAN ACCURACY : 0.9987600000000002
MEAN PRECISION : 0.9987600000000002
BEST ACCURACY : 0.99876
WORST ACCURACY  : 0.99876
BEST PRECISION  : 0.99876
WORST PRECISION : 0.99876


	MODEL
Sequential(
  (0): Linear(in_features=30, out_features=58, bias=True)
  (1): Tanh()
  (2): Linear(in_features=58, out_features=199, bias=True)
  (3): Sigmoid()
  (4): Linear(in_features=199, out_features=86, bias=True)
  (5): Sigmoid()
  (6): Linear(in_features=86, out_features=197, bias=True)
  (7): ReLU()
  (8): Linear(in_features=197, out_features=6, bias=True)
  (9): Tanh()
  (10): Linear(in_features=6, out_features=28, bias=True)
  (11): LeakyReLU(negative_slope=0.01)
  (12): Linear(in_features=28, out_features=106, bias=True)
  (13): Tanh()
  (14): Linear(in_features=106, out_features=182, bias=True)
  (15): LeakyReLU(negative_slope=0.01)
  (16): Linear(in_features=182, out_features=12, bias=True)
  (17): Sigmoid()
  (18): Linear(in_features=12, out_features=158, bias=True)
  (19): ReLU()
  (20): Linear(in_features=158, out_features=187, bias=True)
  (21): LeakyReLU(negative_slope=0.01)
  (22): Linear(in_features=187, out_features=1, bias=True)
  (23): Sigmoid()
)LEARNING RATE : 8.09404342972328e-06	EPOCHS : 100
SCORE : 0.99876
MEAN ACCURACY : 0.9987600000000001
MEAN PRECISION : 0.9987600000000001
BEST ACCURACY : 0.99876
WORST ACCURACY  : 0.99876
BEST PRECISION  : 0.99876
WORST PRECISION : 0.99876


	MODEL
Sequential(
  (0): Linear(in_features=30, out_features=102, bias=True)
  (1): Sigmoid()
  (2): Linear(in_features=102, out_features=35, bias=True)
  (3): LeakyReLU(negative_slope=0.01)
  (4): Linear(in_features=35, out_features=86, bias=True)
  (5): Sigmoid()
  (6): Linear(in_features=86, out_features=197, bias=True)
  (7): ReLU()
  (8): Linear(in_features=197, out_features=41, bias=True)
  (9): Sigmoid()
  (10): Linear(in_features=41, out_features=158, bias=True)
  (11): ReLU()
  (12): Linear(in_features=158, out_features=106, bias=True)
  (13): Tanh()
  (14): Linear(in_features=106, out_features=61, bias=True)
  (15): Sigmoid()
  (16): Linear(in_features=61, out_features=158, bias=True)
  (17): Tanh()
  (18): Linear(in_features=158, out_features=78, bias=True)
  (19): ReLU()
  (20): Linear(in_features=78, out_features=187, bias=True)
  (21): ReLU()
  (22): Linear(in_features=187, out_features=152, bias=True)
  (23): Sigmoid()
  (24): Linear(in_features=152, out_features=175, bias=True)
  (25): ReLU()
  (26): Linear(in_features=175, out_features=66, bias=True)
  (27): Tanh()
  (28): Linear(in_features=66, out_features=109, bias=True)
  (29): ReLU()
  (30): Linear(in_features=109, out_features=182, bias=True)
  (31): LeakyReLU(negative_slope=0.01)
  (32): Linear(in_features=182, out_features=91, bias=True)
  (33): ReLU()
  (34): Linear(in_features=91, out_features=154, bias=True)
  (35): Tanh()
  (36): Linear(in_features=154, out_features=1, bias=True)
  (37): ReLU()
)LEARNING RATE : 2.677096388362465e-06	EPOCHS : 100
SCORE : 0.9987599999999999
MEAN ACCURACY : 0.9987599999999998
MEAN PRECISION : 0.9987599999999998
BEST ACCURACY : 0.99876
WORST ACCURACY  : 0.99876
BEST PRECISION  : 0.99876
WORST PRECISION : 0.99876


	MODEL
Sequential(
  (0): Linear(in_features=30, out_features=165, bias=True)
  (1): ReLU()
  (2): Linear(in_features=165, out_features=199, bias=True)
  (3): Tanh()
  (4): Linear(in_features=199, out_features=176, bias=True)
  (5): LeakyReLU(negative_slope=0.01)
  (6): Linear(in_features=176, out_features=197, bias=True)
  (7): ReLU()
  (8): Linear(in_features=197, out_features=6, bias=True)
  (9): LeakyReLU(negative_slope=0.01)
  (10): Linear(in_features=6, out_features=158, bias=True)
  (11): ReLU()
  (12): Linear(in_features=158, out_features=106, bias=True)
  (13): Tanh()
  (14): Linear(in_features=106, out_features=61, bias=True)
  (15): Sigmoid()
  (16): Linear(in_features=61, out_features=12, bias=True)
  (17): Sigmoid()
  (18): Linear(in_features=12, out_features=78, bias=True)
  (19): ReLU()
  (20): Linear(in_features=78, out_features=187, bias=True)
  (21): ReLU()
  (22): Linear(in_features=187, out_features=1, bias=True)
  (23): Sigmoid()
)LEARNING RATE : 8.09404342972328e-06	EPOCHS : 100
SCORE : 0.9987599999999999
MEAN ACCURACY : 0.9987599999999998
MEAN PRECISION : 0.9987599999999998
BEST ACCURACY : 0.99876
WORST ACCURACY  : 0.99876
BEST PRECISION  : 0.99876
WORST PRECISION : 0.99876


	MODEL
Sequential(
  (0): Linear(in_features=30, out_features=165, bias=True)
  (1): ReLU()
  (2): Linear(in_features=165, out_features=199, bias=True)
  (3): Tanh()
  (4): Linear(in_features=199, out_features=176, bias=True)
  (5): LeakyReLU(negative_slope=0.01)
  (6): Linear(in_features=176, out_features=197, bias=True)
  (7): ReLU()
  (8): Linear(in_features=197, out_features=6, bias=True)
  (9): LeakyReLU(negative_slope=0.01)
  (10): Linear(in_features=6, out_features=158, bias=True)
  (11): ReLU()
  (12): Linear(in_features=158, out_features=106, bias=True)
  (13): Tanh()
  (14): Linear(in_features=106, out_features=61, bias=True)
  (15): Sigmoid()
  (16): Linear(in_features=61, out_features=12, bias=True)
  (17): Sigmoid()
  (18): Linear(in_features=12, out_features=78, bias=True)
  (19): ReLU()
  (20): Linear(in_features=78, out_features=187, bias=True)
  (21): ReLU()
  (22): Linear(in_features=187, out_features=1, bias=True)
  (23): Sigmoid()
)LEARNING RATE : 8.09404342972328e-06	EPOCHS : 100
SCORE : 0.9987599999999999
MEAN ACCURACY : 0.9987599999999998
MEAN PRECISION : 0.9987599999999998
BEST ACCURACY : 0.99876
WORST ACCURACY  : 0.99876
BEST PRECISION  : 0.99876
WORST PRECISION : 0.99876


	MODEL
Sequential(
  (0): Linear(in_features=30, out_features=165, bias=True)
  (1): ReLU()
  (2): Linear(in_features=165, out_features=35, bias=True)
  (3): LeakyReLU(negative_slope=0.01)
  (4): Linear(in_features=35, out_features=86, bias=True)
  (5): Sigmoid()
  (6): Linear(in_features=86, out_features=197, bias=True)
  (7): ReLU()
  (8): Linear(in_features=197, out_features=41, bias=True)
  (9): Sigmoid()
  (10): Linear(in_features=41, out_features=158, bias=True)
  (11): ReLU()
  (12): Linear(in_features=158, out_features=106, bias=True)
  (13): Tanh()
  (14): Linear(in_features=106, out_features=61, bias=True)
  (15): Sigmoid()
  (16): Linear(in_features=61, out_features=158, bias=True)
  (17): Tanh()
  (18): Linear(in_features=158, out_features=78, bias=True)
  (19): ReLU()
  (20): Linear(in_features=78, out_features=187, bias=True)
  (21): ReLU()
  (22): Linear(in_features=187, out_features=1, bias=True)
  (23): Sigmoid()
)LEARNING RATE : 8.09404342972328e-06	EPOCHS : 100
SCORE : 0.6330026666666666
MEAN ACCURACY : 0.8990079999999997
MEAN PRECISION : 0.8990079999999997
BEST ACCURACY : 0.99876
WORST ACCURACY  : 0.00124
BEST PRECISION  : 0.99876
WORST PRECISION : 0.00124


	MODEL
Sequential(
  (0): Linear(in_features=30, out_features=165, bias=True)
  (1): ReLU()
  (2): Linear(in_features=165, out_features=199, bias=True)
  (3): Tanh()
  (4): Linear(in_features=199, out_features=176, bias=True)
  (5): LeakyReLU(negative_slope=0.01)
  (6): Linear(in_features=176, out_features=197, bias=True)
  (7): ReLU()
  (8): Linear(in_features=197, out_features=6, bias=True)
  (9): LeakyReLU(negative_slope=0.01)
  (10): Linear(in_features=6, out_features=158, bias=True)
  (11): ReLU()
  (12): Linear(in_features=158, out_features=106, bias=True)
  (13): Tanh()
  (14): Linear(in_features=106, out_features=61, bias=True)
  (15): Sigmoid()
  (16): Linear(in_features=61, out_features=12, bias=True)
  (17): Sigmoid()
  (18): Linear(in_features=12, out_features=78, bias=True)
  (19): ReLU()
  (20): Linear(in_features=78, out_features=187, bias=True)
  (21): ReLU()
  (22): Linear(in_features=187, out_features=1, bias=True)
  (23): Sigmoid()
)LEARNING RATE : 8.09404342972328e-06	EPOCHS : 100
SCORE : 0.9987599999999999
MEAN ACCURACY : 0.9987599999999998
MEAN PRECISION : 0.9987599999999998
BEST ACCURACY : 0.99876
WORST ACCURACY  : 0.99876
BEST PRECISION  : 0.99876
WORST PRECISION : 0.99876


	MODEL
Sequential(
  (0): Linear(in_features=30, out_features=165, bias=True)
  (1): ReLU()
  (2): Linear(in_features=165, out_features=35, bias=True)
  (3): LeakyReLU(negative_slope=0.01)
  (4): Linear(in_features=35, out_features=86, bias=True)
  (5): Sigmoid()
  (6): Linear(in_features=86, out_features=197, bias=True)
  (7): ReLU()
  (8): Linear(in_features=197, out_features=41, bias=True)
  (9): Sigmoid()
  (10): Linear(in_features=41, out_features=158, bias=True)
  (11): ReLU()
  (12): Linear(in_features=158, out_features=106, bias=True)
  (13): Tanh()
  (14): Linear(in_features=106, out_features=61, bias=True)
  (15): Sigmoid()
  (16): Linear(in_features=61, out_features=12, bias=True)
  (17): Sigmoid()
  (18): Linear(in_features=12, out_features=78, bias=True)
  (19): ReLU()
  (20): Linear(in_features=78, out_features=187, bias=True)
  (21): ReLU()
  (22): Linear(in_features=187, out_features=1, bias=True)
  (23): Sigmoid()
)LEARNING RATE : 8.09404342972328e-06	EPOCHS : 100
SCORE : 0.9987599999999999
MEAN ACCURACY : 0.9987599999999998
MEAN PRECISION : 0.9987599999999998
BEST ACCURACY : 0.99876
WORST ACCURACY  : 0.99876
BEST PRECISION  : 0.99876
WORST PRECISION : 0.99876


	MODEL
Sequential(
  (0): Linear(in_features=30, out_features=165, bias=True)
  (1): ReLU()
  (2): Linear(in_features=165, out_features=199, bias=True)
  (3): Tanh()
  (4): Linear(in_features=199, out_features=176, bias=True)
  (5): LeakyReLU(negative_slope=0.01)
  (6): Linear(in_features=176, out_features=197, bias=True)
  (7): ReLU()
  (8): Linear(in_features=197, out_features=6, bias=True)
  (9): LeakyReLU(negative_slope=0.01)
  (10): Linear(in_features=6, out_features=158, bias=True)
  (11): LeakyReLU(negative_slope=0.01)
  (12): Linear(in_features=158, out_features=106, bias=True)
  (13): Tanh()
  (14): Linear(in_features=106, out_features=61, bias=True)
  (15): Sigmoid()
  (16): Linear(in_features=61, out_features=12, bias=True)
  (17): Sigmoid()
  (18): Linear(in_features=12, out_features=78, bias=True)
  (19): ReLU()
  (20): Linear(in_features=78, out_features=187, bias=True)
  (21): ReLU()
  (22): Linear(in_features=187, out_features=1, bias=True)
  (23): Sigmoid()
)LEARNING RATE : 8.09404342972328e-06	EPOCHS : 100
SCORE : 0.6385444444444445
MEAN ACCURACY : 0.9156333333333332
MEAN PRECISION : 0.9156333333333332
BEST ACCURACY : 0.99876
WORST ACCURACY  : 0.00124
BEST PRECISION  : 0.99876
WORST PRECISION : 0.00124


	MODEL
Sequential(
  (0): Linear(in_features=30, out_features=165, bias=True)
  (1): ReLU()
  (2): Linear(in_features=165, out_features=35, bias=True)
  (3): LeakyReLU(negative_slope=0.01)
  (4): Linear(in_features=35, out_features=86, bias=True)
  (5): Sigmoid()
  (6): Linear(in_features=86, out_features=197, bias=True)
  (7): ReLU()
  (8): Linear(in_features=197, out_features=41, bias=True)
  (9): Sigmoid()
  (10): Linear(in_features=41, out_features=158, bias=True)
  (11): ReLU()
  (12): Linear(in_features=158, out_features=106, bias=True)
  (13): Tanh()
  (14): Linear(in_features=106, out_features=61, bias=True)
  (15): Sigmoid()
  (16): Linear(in_features=61, out_features=158, bias=True)
  (17): Tanh()
  (18): Linear(in_features=158, out_features=78, bias=True)
  (19): ReLU()
  (20): Linear(in_features=78, out_features=187, bias=True)
  (21): ReLU()
  (22): Linear(in_features=187, out_features=152, bias=True)
  (23): Sigmoid()
  (24): Linear(in_features=152, out_features=175, bias=True)
  (25): ReLU()
  (26): Linear(in_features=175, out_features=127, bias=True)
  (27): ReLU()
  (28): Linear(in_features=127, out_features=105, bias=True)
  (29): ReLU()
  (30): Linear(in_features=105, out_features=102, bias=True)
  (31): ReLU()
  (32): Linear(in_features=102, out_features=86, bias=True)
  (33): ReLU()
  (34): Linear(in_features=86, out_features=76, bias=True)
  (35): ReLU()
  (36): Linear(in_features=76, out_features=1, bias=True)
  (37): ReLU()
)LEARNING RATE : 8.09404342972328e-06	EPOCHS : 100
SCORE : 0.9987599999999999
MEAN ACCURACY : 0.9987599999999998
MEAN PRECISION : 0.9987599999999998
BEST ACCURACY : 0.99876
WORST ACCURACY  : 0.99876
BEST PRECISION  : 0.99876
WORST PRECISION : 0.99876


	MODEL
Sequential(
  (0): Linear(in_features=30, out_features=165, bias=True)
  (1): ReLU()
  (2): Linear(in_features=165, out_features=199, bias=True)
  (3): Tanh()
  (4): Linear(in_features=199, out_features=176, bias=True)
  (5): LeakyReLU(negative_slope=0.01)
  (6): Linear(in_features=176, out_features=197, bias=True)
  (7): ReLU()
  (8): Linear(in_features=197, out_features=6, bias=True)
  (9): LeakyReLU(negative_slope=0.01)
  (10): Linear(in_features=6, out_features=158, bias=True)
  (11): LeakyReLU(negative_slope=0.01)
  (12): Linear(in_features=158, out_features=106, bias=True)
  (13): Tanh()
  (14): Linear(in_features=106, out_features=102, bias=True)
  (15): ReLU()
  (16): Linear(in_features=102, out_features=12, bias=True)
  (17): Sigmoid()
  (18): Linear(in_features=12, out_features=78, bias=True)
  (19): ReLU()
  (20): Linear(in_features=78, out_features=187, bias=True)
  (21): ReLU()
  (22): Linear(in_features=187, out_features=1, bias=True)
  (23): Sigmoid()
)LEARNING RATE : 8.09404342972328e-06	EPOCHS : 100
SCORE : 0.9987599999999999
MEAN ACCURACY : 0.9987599999999998
MEAN PRECISION : 0.9987599999999998
BEST ACCURACY : 0.99876
WORST ACCURACY  : 0.99876
BEST PRECISION  : 0.99876
WORST PRECISION : 0.99876


	MODEL
Sequential(
  (0): Linear(in_features=30, out_features=165, bias=True)
  (1): ReLU()
  (2): Linear(in_features=165, out_features=35, bias=True)
  (3): LeakyReLU(negative_slope=0.01)
  (4): Linear(in_features=35, out_features=86, bias=True)
  (5): Sigmoid()
  (6): Linear(in_features=86, out_features=197, bias=True)
  (7): ReLU()
  (8): Linear(in_features=197, out_features=41, bias=True)
  (9): Sigmoid()
  (10): Linear(in_features=41, out_features=158, bias=True)
  (11): ReLU()
  (12): Linear(in_features=158, out_features=106, bias=True)
  (13): Tanh()
  (14): Linear(in_features=106, out_features=61, bias=True)
  (15): Sigmoid()
  (16): Linear(in_features=61, out_features=12, bias=True)
  (17): Sigmoid()
  (18): Linear(in_features=12, out_features=78, bias=True)
  (19): ReLU()
  (20): Linear(in_features=78, out_features=187, bias=True)
  (21): ReLU()
  (22): Linear(in_features=187, out_features=1, bias=True)
  (23): Sigmoid()
)LEARNING RATE : 2.677096388362465e-06	EPOCHS : 100
SCORE : 0.9987599999999999
MEAN ACCURACY : 0.9987599999999998
MEAN PRECISION : 0.9987599999999998
BEST ACCURACY : 0.99876
WORST ACCURACY  : 0.99876
BEST PRECISION  : 0.99876
WORST PRECISION : 0.99876


	MODEL
Sequential(
  (0): Linear(in_features=30, out_features=102, bias=True)
  (1): LeakyReLU(negative_slope=0.01)
  (2): Linear(in_features=102, out_features=35, bias=True)
  (3): LeakyReLU(negative_slope=0.01)
  (4): Linear(in_features=35, out_features=86, bias=True)
  (5): Sigmoid()
  (6): Linear(in_features=86, out_features=197, bias=True)
  (7): ReLU()
  (8): Linear(in_features=197, out_features=41, bias=True)
  (9): Tanh()
  (10): Linear(in_features=41, out_features=158, bias=True)
  (11): LeakyReLU(negative_slope=0.01)
  (12): Linear(in_features=158, out_features=106, bias=True)
  (13): Tanh()
  (14): Linear(in_features=106, out_features=11, bias=True)
  (15): Sigmoid()
  (16): Linear(in_features=11, out_features=53, bias=True)
  (17): Tanh()
  (18): Linear(in_features=53, out_features=173, bias=True)
  (19): ReLU()
  (20): Linear(in_features=173, out_features=187, bias=True)
  (21): ReLU()
  (22): Linear(in_features=187, out_features=152, bias=True)
  (23): Sigmoid()
  (24): Linear(in_features=152, out_features=175, bias=True)
  (25): ReLU()
  (26): Linear(in_features=175, out_features=66, bias=True)
  (27): ReLU()
  (28): Linear(in_features=66, out_features=184, bias=True)
  (29): LeakyReLU(negative_slope=0.01)
  (30): Linear(in_features=184, out_features=182, bias=True)
  (31): LeakyReLU(negative_slope=0.01)
  (32): Linear(in_features=182, out_features=91, bias=True)
  (33): ReLU()
  (34): Linear(in_features=91, out_features=154, bias=True)
  (35): Tanh()
  (36): Linear(in_features=154, out_features=1, bias=True)
  (37): ReLU()
)LEARNING RATE : 2.677096388362465e-06	EPOCHS : 100
SCORE : 0.99876
MEAN ACCURACY : 0.9987600000000001
MEAN PRECISION : 0.9987600000000001
BEST ACCURACY : 0.99876
WORST ACCURACY  : 0.99876
BEST PRECISION  : 0.99876
WORST PRECISION : 0.99876


	MODEL
Sequential(
  (0): Linear(in_features=30, out_features=58, bias=True)
  (1): Tanh()
  (2): Linear(in_features=58, out_features=199, bias=True)
  (3): Sigmoid()
  (4): Linear(in_features=199, out_features=86, bias=True)
  (5): Sigmoid()
  (6): Linear(in_features=86, out_features=197, bias=True)
  (7): ReLU()
  (8): Linear(in_features=197, out_features=6, bias=True)
  (9): Tanh()
  (10): Linear(in_features=6, out_features=28, bias=True)
  (11): LeakyReLU(negative_slope=0.01)
  (12): Linear(in_features=28, out_features=106, bias=True)
  (13): Tanh()
  (14): Linear(in_features=106, out_features=182, bias=True)
  (15): LeakyReLU(negative_slope=0.01)
  (16): Linear(in_features=182, out_features=12, bias=True)
  (17): Sigmoid()
  (18): Linear(in_features=12, out_features=158, bias=True)
  (19): ReLU()
  (20): Linear(in_features=158, out_features=187, bias=True)
  (21): LeakyReLU(negative_slope=0.01)
  (22): Linear(in_features=187, out_features=1, bias=True)
  (23): Sigmoid()
)LEARNING RATE : 8.09404342972328e-06	EPOCHS : 100
SCORE : 0.99876
MEAN ACCURACY : 0.9987600000000002
MEAN PRECISION : 0.9987600000000002
BEST ACCURACY : 0.99876
WORST ACCURACY  : 0.99876
BEST PRECISION  : 0.99876
WORST PRECISION : 0.99876


	MODEL
Sequential(
  (0): Linear(in_features=30, out_features=102, bias=True)
  (1): Sigmoid()
  (2): Linear(in_features=102, out_features=35, bias=True)
  (3): LeakyReLU(negative_slope=0.01)
  (4): Linear(in_features=35, out_features=86, bias=True)
  (5): Sigmoid()
  (6): Linear(in_features=86, out_features=197, bias=True)
  (7): ReLU()
  (8): Linear(in_features=197, out_features=41, bias=True)
  (9): Tanh()
  (10): Linear(in_features=41, out_features=158, bias=True)
  (11): ReLU()
  (12): Linear(in_features=158, out_features=106, bias=True)
  (13): Tanh()
  (14): Linear(in_features=106, out_features=61, bias=True)
  (15): Sigmoid()
  (16): Linear(in_features=61, out_features=158, bias=True)
  (17): Tanh()
  (18): Linear(in_features=158, out_features=173, bias=True)
  (19): LeakyReLU(negative_slope=0.01)
  (20): Linear(in_features=173, out_features=144, bias=True)
  (21): ReLU()
  (22): Linear(in_features=144, out_features=152, bias=True)
  (23): Sigmoid()
  (24): Linear(in_features=152, out_features=175, bias=True)
  (25): ReLU()
  (26): Linear(in_features=175, out_features=66, bias=True)
  (27): LeakyReLU(negative_slope=0.01)
  (28): Linear(in_features=66, out_features=184, bias=True)
  (29): LeakyReLU(negative_slope=0.01)
  (30): Linear(in_features=184, out_features=182, bias=True)
  (31): LeakyReLU(negative_slope=0.01)
  (32): Linear(in_features=182, out_features=91, bias=True)
  (33): ReLU()
  (34): Linear(in_features=91, out_features=154, bias=True)
  (35): Tanh()
  (36): Linear(in_features=154, out_features=1, bias=True)
  (37): ReLU()
)LEARNING RATE : 2.677096388362465e-06	EPOCHS : 100
SCORE : 0.99876
MEAN ACCURACY : 0.9987600000000002
MEAN PRECISION : 0.9987600000000002
BEST ACCURACY : 0.99876
WORST ACCURACY  : 0.99876
BEST PRECISION  : 0.99876
WORST PRECISION : 0.99876


	MODEL
Sequential(
  (0): Linear(in_features=30, out_features=102, bias=True)
  (1): Sigmoid()
  (2): Linear(in_features=102, out_features=35, bias=True)
  (3): LeakyReLU(negative_slope=0.01)
  (4): Linear(in_features=35, out_features=86, bias=True)
  (5): Sigmoid()
  (6): Linear(in_features=86, out_features=197, bias=True)
  (7): ReLU()
  (8): Linear(in_features=197, out_features=41, bias=True)
  (9): Tanh()
  (10): Linear(in_features=41, out_features=158, bias=True)
  (11): ReLU()
  (12): Linear(in_features=158, out_features=106, bias=True)
  (13): Tanh()
  (14): Linear(in_features=106, out_features=61, bias=True)
  (15): Sigmoid()
  (16): Linear(in_features=61, out_features=158, bias=True)
  (17): Tanh()
  (18): Linear(in_features=158, out_features=173, bias=True)
  (19): LeakyReLU(negative_slope=0.01)
  (20): Linear(in_features=173, out_features=144, bias=True)
  (21): ReLU()
  (22): Linear(in_features=144, out_features=152, bias=True)
  (23): Sigmoid()
  (24): Linear(in_features=152, out_features=175, bias=True)
  (25): ReLU()
  (26): Linear(in_features=175, out_features=66, bias=True)
  (27): LeakyReLU(negative_slope=0.01)
  (28): Linear(in_features=66, out_features=184, bias=True)
  (29): LeakyReLU(negative_slope=0.01)
  (30): Linear(in_features=184, out_features=182, bias=True)
  (31): LeakyReLU(negative_slope=0.01)
  (32): Linear(in_features=182, out_features=91, bias=True)
  (33): ReLU()
  (34): Linear(in_features=91, out_features=154, bias=True)
  (35): Tanh()
  (36): Linear(in_features=154, out_features=1, bias=True)
  (37): ReLU()
)LEARNING RATE : 2.677096388362465e-06	EPOCHS : 100
SCORE : 0.99876
MEAN ACCURACY : 0.9987600000000002
MEAN PRECISION : 0.9987600000000002
BEST ACCURACY : 0.99876
WORST ACCURACY  : 0.99876
BEST PRECISION  : 0.99876
WORST PRECISION : 0.99876


	MODEL
Sequential(
  (0): Linear(in_features=30, out_features=102, bias=True)
  (1): Sigmoid()
  (2): Linear(in_features=102, out_features=35, bias=True)
  (3): LeakyReLU(negative_slope=0.01)
  (4): Linear(in_features=35, out_features=86, bias=True)
  (5): Sigmoid()
  (6): Linear(in_features=86, out_features=197, bias=True)
  (7): ReLU()
  (8): Linear(in_features=197, out_features=41, bias=True)
  (9): Tanh()
  (10): Linear(in_features=41, out_features=158, bias=True)
  (11): ReLU()
  (12): Linear(in_features=158, out_features=106, bias=True)
  (13): Tanh()
  (14): Linear(in_features=106, out_features=61, bias=True)
  (15): Sigmoid()
  (16): Linear(in_features=61, out_features=158, bias=True)
  (17): Tanh()
  (18): Linear(in_features=158, out_features=173, bias=True)
  (19): LeakyReLU(negative_slope=0.01)
  (20): Linear(in_features=173, out_features=144, bias=True)
  (21): ReLU()
  (22): Linear(in_features=144, out_features=152, bias=True)
  (23): Sigmoid()
  (24): Linear(in_features=152, out_features=175, bias=True)
  (25): ReLU()
  (26): Linear(in_features=175, out_features=66, bias=True)
  (27): LeakyReLU(negative_slope=0.01)
  (28): Linear(in_features=66, out_features=184, bias=True)
  (29): LeakyReLU(negative_slope=0.01)
  (30): Linear(in_features=184, out_features=182, bias=True)
  (31): LeakyReLU(negative_slope=0.01)
  (32): Linear(in_features=182, out_features=91, bias=True)
  (33): ReLU()
  (34): Linear(in_features=91, out_features=154, bias=True)
  (35): Tanh()
  (36): Linear(in_features=154, out_features=1, bias=True)
  (37): ReLU()
)LEARNING RATE : 2.677096388362465e-06	EPOCHS : 100
SCORE : 0.99876
MEAN ACCURACY : 0.9987600000000002
MEAN PRECISION : 0.9987600000000002
BEST ACCURACY : 0.99876
WORST ACCURACY  : 0.99876
BEST PRECISION  : 0.99876
WORST PRECISION : 0.99876

